models/detection/version-RFB-320_int8.tflite (tflite, 411160 bytes, 54 tensors)

model/reg_3_convbias/Conv2D i1 [12, 3, 3, 256]
000000 86 0d ef 54 d4 2b a1 08 6b 54 61 6a 7b b9 b7 f4
       -122 13 -17 84 -44 43 -95 8 107 84 97 106 123 -71 -73 -12
000010 25 8e 56 6d 44 77 94 21 22 db 5c c9 78 22 02 8b
       37 -114 86 109 68 119 -108 33 34 -37 92 -55 120 34 2 -117
000020 0b 7b ec 04 9d 3d 37 e4 67 ef c9 a0 cb 1e 34 7d
       11 123 -20 4 -99 61 55 -28 103 -17 -55 -96 -53 30 52 125
000030 6c 95 6c 1d 3e 0d 4a 15 c8 c7 11 4a 76 c0 ac 03
       108 -107 108 29 62 13 74 21 -56 -57 17 74 118 -64 -84 3
000040 c7 52 e7 2c b3 68 1b b3 13 c6 39 74 96 cb c1 c1
       -57 82 -25 44 -77 104 27 -77 19 -58 57 116 -106 -53 -63 -63
000050 88 1e 01 38 f2 07 5c ff 2c 5f a4 ef 4b ca 5e c2
       -120 30 1 56 -14 7 92 -1 44 95 -92 -17 75 -54 94 -62
000060 93 94 71 db b8 1a 8a 06 69 64 5e 3e 8a 47 5a e8
       -109 -108 113 -37 -72 26 -118 6 105 100 94 62 -118 71 90 -24
000070 ef 7c d6 59 b6 f1 7c df 16 40 91 b2 0c d7 41 1b
       -17 124 -42 89 -74 -15 124 -33 22 64 -111 -78 12 -41 65 27
000080 4c 0d 5d eb ab 2f 39 f4 46 cb 8d 9f 30 c3 bb 12
       76 13 93 -21 -85 47 57 -12 70 -53 -115 -97 48 -61 -69 18
000090 3b 63 c9 fa f6 65 bf 64 92 b2 4c 6e 93 66 12 c0
       59 99 -55 -6 -10 101 -65 100 -110 -78 76 110 -109 102 18 -64
0000a0 b6 d9 ee a9 f3 7e db 5b ab 65 f6 c0 be 7a 1e 30
       -74 -39 -18 -87 -13 126 -37 91 -85 101 -10 -64 -66 122 30 48
0000b0 bf ae e8 c1 da 69 88 34 08 1f fe 8f a6 1b e3 21
       -65 -82 -24 -63 -38 105 -120 52 8 31 -2 -113 -90 27 -29 33
0000c0 67 0a 2b 00 f8 fe 57 b6 c5 d6 4e 3e 40 37 5b 43
       103 10 43 0 -8 -2 87 -74 -59 -42 78 62 64 55 91 67
0000d0 b8 54 4f 7d fb de 2a af 36 38 55 fc f6 c2 d1 f8
       -72 84 79 125 -5 -34 42 -81 54 56 85 -4 -10 -62 -47 -8
0000e0 3f 39 0b c8 27 ee 1d 77 e5 d5 bf a0 24 bc 9e 69
       63 57 11 -56 39 -18 29 119 -27 -43 -65 -96 36 -68 -98 105
0000f0 9f e2 33 3f de 61 7d 7b 41 af 1d ed 08 68 31 d5
       -97 -30 51 63 -34 97 125 123 65 -81 29 -19 8 104 49 -43

model/reg_2_sep_convbias/Conv2D i1 [8, 1, 1, 256]
000000 26 2c ce 5d c6 a7 07 4d e5 0a 1b 5a be 9f 1c 14
       38 44 -50 93 -58 -89 7 77 -27 10 27 90 -66 -97 28 20
000010 ba eb e5 4e ec 30 44 04 2d 33 84 94 b6 72 a0 a8
       -70 -21 -27 78 -20 48 68 4 45 51 -124 -108 -74 114 -96 -88
000020 ad 16 9b d8 cf ff 9c 86 27 52 b9 16 7a d8 32 9d
       -83 22 -101 -40 -49 -1 -100 -122 39 82 -71 22 122 -40 50 -99
000030 ae 27 dd 73 52 ce 56 73 d1 5a d5 b6 29 50 dd 2e
       -82 39 -35 115 82 -50 86 115 -47 90 -43 -74 41 80 -35 46
000040 15 42 cd f3 43 c2 59 f9 b9 d7 a7 07 fd 51 db 33
       21 66 -51 -13 67 -62 89 -7 -71 -41 -89 7 -3 81 -37 51
000050 1c 77 e8 d5 72 35 7d b8 3c 7c 63 ff b4 43 02 79
       28 119 -24 -43 114 53 125 -72 60 124 99 -1 -76 67 2 121
000060 fb ae ed bd 26 1c eb cf ca ae e4 f2 51 3c 9a a2
       -5 -82 -19 -67 38 28 -21 -49 -54 -82 -28 -14 81 60 -102 -94
000070 b4 c3 e3 cf fb 14 50 00 8f 78 65 c2 4c 1d 8d f9
       -76 -61 -29 -49 -5 20 80 0 -113 120 101 -62 76 29 -115 -7
000080 f3 ef ff d9 25 a5 e1 be 69 d3 94 c6 52 7f 1b ae
       -13 -17 -1 -39 37 -91 -31 -66 105 -45 -108 -58 82 127 27 -82
000090 a5 2e 41 f2 b1 09 db 00 81 c3 99 de 4e ef ad 7c
       -91 46 65 -14 -79 9 -37 0 -127 -61 -103 -34 78 -17 -83 124
0000a0 90 99 ea 27 8d 67 8b 07 2c 11 71 64 cd 1c d3 d9
       -112 -103 -22 39 -115 103 -117 7 44 17 113 100 -51 28 -45 -39
0000b0 c7 7e 2a cb af bb 10 af 97 90 8d 3e e0 b7 ec 43
       -57 126 42 -53 -81 -69 16 -81 -105 -112 -115 62 -32 -73 -20 67
0000c0 11 de e9 b9 f7 de 91 ee 48 e5 b2 dc c0 0c 00 d3
       17 -34 -23 -71 -9 -34 -111 -18 72 -27 -78 -36 -64 12 0 -45
0000d0 a4 9b 55 b2 f1 0d ae da b5 33 16 e0 ad 5c f5 32
       -92 -101 85 -78 -15 13 -82 -38 -75 51 22 -32 -83 92 -11 50
0000e0 b0 34 50 6f 95 0e 5a b0 58 a0 00 fa 98 7f 58 da
       -80 52 80 111 -107 14 90 -80 88 -96 0 -6 -104 127 88 -38
0000f0 9b f9 97 ba df 35 0f 13 02 dd 38 f8 7b 6c fd 18
       -101 -7 -105 -70 -33 53 15 19 2 -35 56 -8 123 108 -3 24

model/reg_2_sep_dconvbias/depthwise i1 [1, 3, 3, 256]
000000 81 65 6f 85 21 a9 c3 17 81 50 a2 81 f1 41 5e 92
       -127 101 111 -123 33 -87 -61 23 -127 80 -94 -127 -15 65 94 -110
000010 30 7f 7f 0c ab 43 81 c9 64 29 d6 19 7f 7d 5d a5
       48 127 127 12 -85 67 -127 -55 100 41 -42 25 127 125 93 -91
000020 dd 20 2e d9 dc 89 6d 78 d7 48 e3 18 9d 00 f8 81
       -35 32 46 -39 -36 -119 109 120 -41 72 -29 24 -99 0 -8 -127
000030 36 3b 50 17 d9 75 57 69 53 ab 6b ff e6 6a 94 fa
       54 59 80 23 -39 117 87 105 83 -85 107 -1 -26 106 -108 -6
000040 81 34 50 e9 b0 6f 5b 7a fa cc 90 5c dd 81 e3 56
       -127 52 80 -23 -80 111 91 122 -6 -52 -112 92 -35 -127 -29 86
000050 11 ad 6a 90 8c 9c fe 81 81 45 d2 08 e8 81 c0 a6
       17 -83 106 -112 -116 -100 -2 -127 -127 69 -46 8 -24 -127 -64 -90
000060 e8 85 89 fa 7f dd d3 81 78 1d 51 a3 d0 6d 81 19
       -24 -123 -119 -6 127 -35 -45 -127 120 29 81 -93 -48 109 -127 25
000070 de 33 22 0d fc 68 bb 9d c1 81 c4 e9 a1 7d ec 68
       -34 51 34 13 -4 104 -69 -99 -63 -127 -60 -23 -95 125 -20 104
000080 1d 26 e9 46 89 d4 ed 81 c8 43 f7 fb 0a 50 c4 81
       29 38 -23 70 -119 -44 -19 -127 -56 67 -9 -5 10 80 -60 -127
000090 7f 20 81 ab 3d f5 a9 cc 0c 24 4e da 97 da 28 90
       127 32 -127 -85 61 -11 -87 -52 12 36 78 -38 -105 -38 40 -112
0000a0 79 50 28 26 c3 25 df 06 e2 9c 7c 03 25 0e 5d e0
       121 80 40 38 -61 37 -33 6 -30 -100 124 3 37 14 93 -32
0000b0 04 32 79 cc 0e 7c 05 28 92 26 e1 0a 75 06 ae 7f
       4 50 121 -52 14 124 5 40 -110 38 -31 10 117 6 -82 127
0000c0 81 ea 18 81 d9 37 8d 35 f1 81 24 e4 4d 14 29 38
       -127 -22 24 -127 -39 55 -115 53 -15 -127 36 -28 77 20 41 56
0000d0 24 38 ad a6 5c 59 7c f0 cd 92 0f 91 67 0f 6d 0a
       36 56 -83 -90 92 89 124 -16 -51 -110 15 -111 103 15 109 10
0000e0 e6 e4 81 81 29 a7 15 81 c4 81 7f 75 e8 1e 33 7f
       -26 -28 -127 -127 41 -89 21 -127 -60 -127 127 117 -24 30 51 127
0000f0 76 7f 15 08 7f bf 60 6b 48 4d 81 a9 7f 27 81 f0
       118 127 21 8 127 -65 96 107 72 77 -127 -87 127 39 -127 -16

model/reg_1_sep_convbias/Conv2D i1 [8, 1, 1, 128]
000000 c8 5d 1d eb f7 33 2e 1a cb 50 2b 1a 89 8b 12 43
       -56 93 29 -21 -9 51 46 26 -53 80 43 26 -119 -117 18 67
000010 97 ab 35 fa 46 bc ec ab 02 2b 92 18 65 41 7a 34
       -105 -85 53 -6 70 -68 -20 -85 2 43 -110 24 101 65 122 52
000020 65 e3 a4 8f e0 77 64 ca 38 7f b6 35 64 1c 6f 81
       101 -29 -92 -113 -32 119 100 -54 56 127 -74 53 100 28 111 -127
000030 2a 1f 17 6e 5b 0a 71 71 e5 2b 0b 2b 72 69 e1 14
       42 31 23 110 91 10 113 113 -27 43 11 43 114 105 -31 20
000040 ae 1d e5 c8 1b c1 79 38 9b b4 e7 dc c1 00 db 36
       -82 29 -27 -56 27 -63 121 56 -101 -76 -25 -36 -63 0 -37 54
000050 07 d7 53 9d d8 06 9c c4 9c 5b e4 79 c1 29 79 c4
       7 -41 83 -99 -40 6 -100 -60 -100 91 -28 121 -63 41 121 -60
000060 d2 54 46 3e 29 39 06 27 17 84 ac fc 21 38 d8 41
       -46 84 70 62 41 57 6 39 23 -124 -84 -4 33 56 -40 65
000070 f5 ab e6 87 0a 74 a9 6c 9f e6 c1 d1 3b 27 e0 56
       -11 -85 -26 -121 10 116 -87 108 -97 -26 -63 -47 59 39 -32 86
000080 f0 0f 61 74 11 a9 8a 14 d8 ec 89 fc e2 d2 9b 94
       -16 15 97 116 17 -87 -118 20 -40 -20 -119 -4 -30 -46 -101 -108
000090 e6 0d b5 67 96 a6 9d a0 88 a7 3d d0 2f e3 f1 dd
       -26 13 -75 103 -106 -90 -99 -96 -120 -89 61 -48 47 -29 -15 -35
0000a0 a2 2b 2d 62 f4 87 32 61 dd 55 96 6e b9 63 b7 4b
       -94 43 45 98 -12 -121 50 97 -35 85 -106 110 -71 99 -73 75
0000b0 15 ee 22 37 31 c5 57 52 5f 6f 2d 36 b4 5f 86 0d
       21 -18 34 55 49 -59 87 82 95 111 45 54 -76 95 -122 13
0000c0 44 7e 3d ca 0b a1 7f 55 fe 11 56 b6 55 74 59 a6
       68 126 61 -54 11 -95 127 85 -2 17 86 -74 85 116 89 -90
0000d0 f0 a2 db 53 02 46 a4 7a ac 33 00 0c d1 a9 ab 3b
       -16 -94 -37 83 2 70 -92 122 -84 51 0 12 -47 -87 -85 59
0000e0 25 5d 66 3f be e7 83 a7 17 87 73 72 ed c9 64 fb
       37 93 102 63 -66 -25 -125 -89 23 -121 115 114 -19 -55 100 -5
0000f0 7c 43 01 43 28 0a 67 c3 b1 c2 20 18 eb 5f 01 ad
       124 67 1 67 40 10 103 -61 -79 -62 32 24 -21 95 1 -83

model/reg_1_sep_dconvbias/depthwise i1 [1, 3, 3, 128]
000000 25 7f e0 81 39 78 81 3f d5 81 2b b0 ce 48 97 7f
       37 127 -32 -127 57 120 -127 63 -43 -127 43 -80 -50 72 -105 127
000010 11 46 b2 92 15 13 ec 51 14 d6 f3 81 cc c4 5c c0
       17 70 -78 -110 21 19 -20 81 20 -42 -13 -127 -52 -60 92 -64
000020 14 d6 6b 33 78 7f 9c fd e4 b4 81 3b 10 a7 fe b9
       20 -42 107 51 120 127 -100 -3 -28 -76 -127 59 16 -89 -2 -71
000030 c1 f5 2f 81 b6 8e c7 e6 48 3f 4b 79 7f 96 9d 37
       -63 -11 47 -127 -74 -114 -57 -26 72 63 75 121 127 -106 -99 55
000040 3e 94 f9 e2 d5 ce 76 83 2a 3f 08 a2 4b 7f ab 9c
       62 -108 -7 -30 -43 -50 118 -125 42 63 8 -94 75 127 -85 -100
000050 d2 3d ca 17 9e a1 81 25 92 34 16 b6 cb 2c d6 6c
       -46 61 -54 23 -98 -95 -127 37 -110 52 22 -74 -53 44 -42 108
000060 11 75 34 cc 23 16 11 71 4c 81 3d 7f a0 b7 38 22
       17 117 52 -52 35 22 17 113 76 -127 61 127 -96 -73 56 34
000070 5f a1 81 81 96 bb e1 10 2b 57 7c cb 6f 94 fc 0f
       95 -95 -127 -127 -106 -69 -31 16 43 87 124 -53 111 -108 -4 15
000080 e4 00 f9 d6 7f 70 57 fc 13 3c 56 3d d9 10 7f fc
       -28 0 -7 -42 127 112 87 -4 19 60 86 61 -39 16 127 -4
000090 c9 57 fc 55 38 5b 21 ac 89 81 88 86 81 39 c4 cc
       -55 87 -4 85 56 91 33 -84 -119 -127 -120 -122 -127 57 -60 -52
0000a0 c3 3a 36 40 06 67 81 4e e1 2b db 2a aa 90 b8 7f
       -61 58 54 64 6 103 -127 78 -31 43 -37 42 -86 -112 -72 127
0000b0 ae d2 6e c4 bc 25 60 46 fb e9 bf 72 91 65 41 7f
       -82 -46 110 -60 -68 37 96 70 -5 -23 -65 114 -111 101 65 127
0000c0 0e 2e dc fd 87 1d b8 73 7d 96 c0 81 51 ca ae e5
       14 46 -36 -3 -121 29 -72 115 125 -106 -64 -127 81 -54 -82 -27
0000d0 8b ab d0 67 2c 92 fa e2 e9 ae b6 90 16 7f d9 de
       -117 -85 -48 103 44 -110 -6 -30 -23 -82 -74 -112 22 127 -39 -34
0000e0 63 8c 3d 9c 19 a7 3e 8d 63 07 67 73 dd f1 d5 00
       99 -116 61 -100 25 -89 62 -115 99 7 103 115 -35 -15 -43 0
0000f0 98 7b 12 82 03 6c 44 8a 33 9f b1 ad 81 cd 5f 13
       -104 123 18 -126 3 108 68 -118 51 -97 -79 -83 -127 -51 95 19

model/reg_0_sep_convbias/Conv2D i1 [12, 1, 1, 64]
000000 06 93 bd 0e 9f 1d 36 b9 cb e2 02 d2 ca 16 17 0a
       6 -109 -67 14 -97 29 54 -71 -53 -30 2 -46 -54 22 23 10
000010 b2 a2 19 f8 3f 2f af 4d 56 58 a8 76 0c 9b 63 ce
       -78 -94 25 -8 63 47 -81 77 86 88 -88 118 12 -101 99 -50
000020 78 30 27 1b a9 83 90 1d be f9 79 27 58 8c 78 a6
       120 48 39 27 -87 -125 -112 29 -66 -7 121 39 88 -116 120 -90
000030 28 7e cf 59 19 f1 61 7f 22 72 23 7b a5 46 8f fb
       40 126 -49 89 25 -15 97 127 34 114 35 123 -91 70 -113 -5
000040 83 e9 7f 93 4e 15 e9 9f 99 e9 8f bb 93 59 c0 ce
       -125 -23 127 -109 78 21 -23 -97 -103 -23 -113 -69 -109 89 -64 -50
000050 33 ba de 9d e7 72 68 11 19 43 11 06 32 09 61 cc
       51 -70 -34 -99 -25 114 104 17 25 67 17 6 50 9 97 -52
000060 a6 dd 8d be c6 60 47 83 98 56 b0 87 30 32 51 23
       -90 -35 -115 -66 -58 96 71 -125 -104 86 -80 -121 48 50 81 35
000070 6f 99 9f 84 28 5d 02 97 69 ee 83 be 5e 25 ef be
       111 -103 -97 -124 40 93 2 -105 105 -18 -125 -66 94 37 -17 -66
000080 27 6e 87 3e 93 dd ca 0a c9 8e 02 a9 d2 5f 60 51
       39 110 -121 62 -109 -35 -54 10 -55 -114 2 -87 -46 95 96 81
000090 a7 16 b2 81 e8 8f d5 56 05 9b 78 8a f0 9c 9b 5e
       -89 22 -78 -127 -24 -113 -43 86 5 -101 120 -118 -16 -100 -101 94
0000a0 d6 90 bd 42 30 37 14 82 3b b1 50 0a 8b 1c f4 d4
       -42 -112 -67 66 48 55 20 -126 59 -79 80 10 -117 28 -12 -44
0000b0 f2 b0 b2 90 02 e0 c2 00 55 b4 79 58 9a 36 c7 dc
       -14 -80 -78 -112 2 -32 -62 0 85 -76 121 88 -102 54 -57 -36
0000c0 8e 1d 5f 47 f1 7f 50 b9 7d 1f c1 17 db 2c 5d c5
       -114 29 95 71 -15 127 80 -71 125 31 -63 23 -37 44 93 -59
0000d0 2a a7 39 0a 54 bf f0 10 e1 6e 2f 6c 0d 9b 66 e3
       42 -89 57 10 84 -65 -16 16 -31 110 47 108 13 -101 102 -29
0000e0 2d 0c 3c d1 e4 a2 0d 46 be 6f 9d 5c 18 60 8d 32
       45 12 60 -47 -28 -94 13 70 -66 111 -99 92 24 96 -115 50
0000f0 87 72 d2 85 fd 50 1b a4 ff 0f 34 37 cd 18 ea 2e
       -121 114 -46 -123 -3 80 27 -92 -1 15 52 55 -51 24 -22 46

model/reg_0_sep_dconvbias/depthwise i1 [1, 3, 3, 64]
000000 1f ee 6d d6 7c 3e f9 7f 97 88 ea 8c df f2 fd df
       31 -18 109 -42 124 62 -7 127 -105 -120 -22 -116 -33 -14 -3 -33
000010 81 6e d9 e3 44 16 7f 4d 79 d6 0b 7f d9 fc 99 6c
       -127 110 -39 -29 68 22 127 77 121 -42 11 127 -39 -4 -103 108
000020 27 61 64 d9 7f cb c4 68 81 54 9a 81 0a f8 5e 7f
       39 97 100 -39 127 -53 -60 104 -127 84 -102 -127 10 -8 94 127
000030 65 ce d7 86 0e f3 0b 5b 81 96 88 6d fc 25 11 db
       101 -50 -41 -122 14 -13 11 91 -127 -106 -120 109 -4 37 17 -37
000040 17 81 19 39 f1 c2 0f 7c 20 6a ed be 27 df 7a df
       23 -127 25 57 -15 -62 15 124 32 106 -19 -66 39 -33 122 -33
000050 e0 b2 77 11 c6 a1 66 62 cf 16 96 78 b3 23 26 76
       -32 -78 119 17 -58 -95 102 98 -49 22 -106 120 -77 35 38 118
000060 89 e5 77 7c e8 0d 2d 43 b8 cb 6b 84 20 a4 81 cb
       -119 -27 119 124 -24 13 45 67 -72 -53 107 -124 32 -92 -127 -53
000070 b1 81 95 41 d9 58 27 11 a6 4a 63 fa 8b d8 db 93
       -79 -127 -107 65 -39 88 39 17 -90 74 99 -6 -117 -40 -37 -109
000080 9b 90 79 e3 dc 7f e8 4c b4 29 f7 c2 a5 f4 2f 81
       -101 -112 121 -29 -36 127 -24 76 -76 41 -9 -62 -91 -12 47 -127
000090 be f6 d5 5b cc 9e a2 0f d8 20 7f 15 a3 eb 79 f9
       -66 -10 -43 91 -52 -98 -94 15 -40 32 127 21 -93 -21 121 -7
0000a0 e0 cf c3 a8 b9 84 72 ef c4 aa 0f db 57 ee 50 ce
       -32 -49 -61 -88 -71 -124 114 -17 -60 -86 15 -37 87 -18 80 -50
0000b0 17 65 49 97 c5 90 ed 4e 01 79 1f 74 fd 35 d6 68
       23 101 73 -105 -59 -112 -19 78 1 121 31 116 -3 53 -42 104
0000c0 bb a7 7b 62 22 e0 65 e3 7f 7f df c9 81 0d 25 df
       -69 -89 123 98 34 -32 101 -29 127 127 -33 -55 -127 13 37 -33
0000d0 4b 7f 68 7f 7f 08 40 88 e4 04 79 d0 81 93 f5 a2
       75 127 104 127 127 8 64 -120 -28 4 121 -48 -127 -109 -11 -94
0000e0 ff dd 0a 1f a7 8e 31 81 3d 7f 33 9a 16 34 d6 26
       -1 -35 10 31 -89 -114 49 -127 61 127 51 -102 22 52 -42 38
0000f0 37 1a 75 88 99 9b 37 ab 33 a6 7f 60 cf d0 fd 07
       55 26 117 -120 -103 -101 55 -85 51 -90 127 96 -49 -48 -3 7

model/cls_3_convbias/Conv2D i1 [6, 3, 3, 256]
000000 21 09 fb b1 a8 94 83 9a 2b 87 8b c4 7e 77 c0 cb
       33 9 -5 -79 -88 -108 -125 -102 43 -121 -117 -60 126 119 -64 -53
000010 1d c8 ce 6a a3 7f 11 93 82 18 30 fe 02 12 56 5e
       29 -56 -50 106 -93 127 17 -109 -126 24 48 -2 2 18 86 94
000020 ef 20 9a 82 28 6f 84 99 b5 d5 d6 16 27 ec d3 43
       -17 32 -102 -126 40 111 -124 -103 -75 -43 -42 22 39 -20 -45 67
000030 36 8b 01 f1 d1 0f 3a 27 d5 b6 7f 21 1a 38 92 65
       54 -117 1 -15 -47 15 58 39 -43 -74 127 33 26 56 -110 101
000040 79 63 db ec 9a c0 85 a5 ed c0 04 77 46 d9 b4 cc
       121 99 -37 -20 -102 -64 -123 -91 -19 -64 4 119 70 -39 -76 -52
000050 10 f2 28 f5 1f 29 14 c4 2a 45 7f 28 e1 d0 fa 2c
       16 -14 40 -11 31 41 20 -60 42 69 127 40 -31 -48 -6 44
000060 a4 68 07 89 82 c1 71 5a e1 48 42 5c 4e a1 8e c0
       -92 104 7 -119 -126 -63 113 90 -31 72 66 92 78 -95 -114 -64
000070 65 ea 69 03 6f b4 9b d9 cb 23 3c 83 26 c1 0b 8d
       101 -22 105 3 111 -76 -101 -39 -53 35 60 -125 38 -63 11 -115
000080 8a d6 ba f1 14 85 5f bb e2 64 0d 28 a0 44 a4 b9
       -118 -42 -70 -15 20 -123 95 -69 -30 100 13 40 -96 68 -92 -71
000090 b4 da 7d e0 b3 18 b0 98 84 9e 97 d2 83 13 28 dc
       -76 -38 125 -32 -77 24 -80 -104 -124 -98 -105 -46 -125 19 40 -36
0000a0 6f c5 a4 2c 85 2d 64 5b 81 98 57 a2 c3 0e 93 ee
       111 -59 -92 44 -123 45 100 91 -127 -104 87 -94 -61 14 -109 -18
0000b0 54 60 4f b8 63 49 4c de 3b 6b 9b 1e 19 5d 1f ae
       84 96 79 -72 99 73 76 -34 59 107 -101 30 25 93 31 -82
0000c0 ac 56 7d f1 6b cf 9d 62 6d b1 e0 05 5d e2 bf 68
       -84 86 125 -15 107 -49 -99 98 109 -79 -32 5 93 -30 -65 104
0000d0 c0 51 29 e0 35 07 d0 a2 5d d1 d5 2a 29 66 a4 ca
       -64 81 41 -32 53 7 -48 -94 93 -47 -43 42 41 102 -92 -54
0000e0 17 5c f6 d8 77 27 9e 48 35 5b 5f c3 8c a7 a8 f6
       23 92 -10 -40 119 39 -98 72 53 91 95 -61 -116 -89 -88 -10
0000f0 19 84 36 9e cc b8 7e a1 53 0f ac 71 30 6b 66 14
       25 -124 54 -98 -52 -72 126 -95 83 15 -84 113 48 107 102 20

model/extras_sep_convbias/Conv2D i1 [256, 1, 1, 64]
000000 32 d5 c3 20 03 ed 7b 51 bf 73 b8 af 1c 90 ed fd
       50 -43 -61 32 3 -19 123 81 -65 115 -72 -81 28 -112 -19 -3
000010 d4 26 7b a9 65 a6 54 c3 48 07 d3 82 9c 30 1d 36
       -44 38 123 -87 101 -90 84 -61 72 7 -45 -126 -100 48 29 54
000020 23 14 1f 2e e0 dc a5 81 1f 85 7d d0 75 32 2e f5
       35 20 31 46 -32 -36 -91 -127 31 -123 125 -48 117 50 46 -11
000030 b0 59 94 bc d9 93 f0 2f 70 71 d3 ac 8b 1d c3 6e
       -80 89 -108 -68 -39 -109 -16 47 112 113 -45 -84 -117 29 -61 110
000040 d3 e3 e3 cf 11 c6 7e 07 2c fc 28 a3 16 f3 4d a4
       -45 -29 -29 -49 17 -58 126 7 44 -4 40 -93 22 -13 77 -92
000050 f4 d2 6d 5e 67 f0 44 30 81 cb 62 55 38 fd b0 c2
       -12 -46 109 94 103 -16 68 48 -127 -53 98 85 56 -3 -80 -62
000060 cf 0c c6 2c 69 85 3a 18 df 49 aa 35 f6 85 76 65
       -49 12 -58 44 105 -123 58 24 -33 73 -86 53 -10 -123 118 101
000070 0e c1 1e 60 f7 d8 0b ce 10 52 ff 75 31 e5 ea 42
       14 -63 30 96 -9 -40 11 -50 16 82 -1 117 49 -27 -22 66
000080 a1 ce 2a 0b d1 7e 35 00 6f 45 5a f8 9f 63 79 04
       -95 -50 42 11 -47 126 53 0 111 69 90 -8 -97 99 121 4
000090 87 ae 0a 45 26 72 57 2f f6 a1 29 96 01 46 d4 ef
       -121 -82 10 69 38 114 87 47 -10 -95 41 -106 1 70 -44 -17
0000a0 b5 0e 96 29 65 9a 9a e2 da eb 82 a2 9c 88 7b 96
       -75 14 -106 41 101 -102 -102 -30 -38 -21 -126 -94 -100 -120 123 -106
0000b0 1a c6 a6 d5 81 81 b4 a6 8d bc 8f de a4 f1 16 be
       26 -58 -90 -43 -127 -127 -76 -90 -115 -68 -113 -34 -92 -15 22 -66
0000c0 bf fc 94 71 24 ea 83 88 e7 37 fd 45 85 6f f0 ae
       -65 -4 -108 113 36 -22 -125 -120 -25 55 -3 69 -123 111 -16 -82
0000d0 4e e6 aa e1 ff dd f2 81 dc d7 18 60 70 7d 53 ae
       78 -26 -86 -31 -1 -35 -14 -127 -36 -41 24 96 112 125 83 -82
0000e0 c5 fc ee e0 65 96 a4 7d 81 55 a6 b2 ea 73 e8 69
       -59 -4 -18 -32 101 -106 -92 125 -127 85 -90 -78 -22 115 -24 105
0000f0 df 96 94 5e 16 f6 9a 38 53 ef 26 e9 3c 21 0c ec
       -33 -106 -108 94 22 -10 -102 56 83 -17 38 -23 60 33 12 -20

model/extras_sep_dconvbias/depthwise i1 [1, 3, 3, 64]
000000 0a b9 98 d2 d7 04 97 83 7b f2 c2 7a 67 02 d0 74
       10 -71 -104 -46 -41 4 -105 -125 123 -14 -62 122 103 2 -48 116
000010 ed c8 c8 7f 03 f0 fe 6b 7c ef 64 09 6a 6f 46 5d
       -19 -56 -56 127 3 -16 -2 107 124 -17 100 9 106 111 70 93
000020 78 b6 01 79 7f 9c 33 e4 4f fd d9 ac b9 81 a4 86
       120 -74 1 121 127 -100 51 -28 79 -3 -39 -84 -71 -127 -92 -122
000030 b9 8f 30 81 aa 3f eb bd 81 f3 60 00 24 aa ca 0a
       -71 -113 48 -127 -86 63 -21 -67 -127 -13 96 0 36 -86 -54 10
000040 f2 03 47 81 83 fa e4 81 9a 7b c7 03 f3 3e 38 90
       -14 3 71 -127 -125 -6 -28 -127 -102 123 -57 3 -13 62 56 -112
000050 98 f7 7f 39 81 35 7f e5 ad 8d 89 92 c4 c2 9e a8
       -104 -9 127 57 -127 53 127 -27 -83 -115 -119 -110 -60 -62 -98 -88
000060 94 e4 ab e3 86 c3 bb 83 81 ea ae 16 fa 0c 33 a9
       -108 -28 -85 -29 -122 -61 -69 -125 -127 -22 -82 22 -6 12 51 -87
000070 54 21 d1 2c 15 6c dc 05 dc da 81 ff b0 34 d5 74
       84 33 -47 44 21 108 -36 5 -36 -38 -127 -1 -80 52 -43 116
000080 81 53 7f fb d1 0b 4b 3e f8 96 7a 5c 12 f9 7a 45
       -127 83 127 -5 -47 11 75 62 -8 -106 122 92 18 -7 122 69
000090 5c 72 0a cc 4c 81 c2 d1 43 f6 3c 7f 04 1c fa b0
       92 114 10 -52 76 -127 -62 -47 67 -10 60 127 4 28 -6 -80
0000a0 34 32 a9 dc 70 74 81 f1 7e 82 7f ac 7f 57 81 df
       52 50 -87 -36 112 116 -127 -15 126 -126 127 -84 127 87 -127 -33
0000b0 c7 b1 4f e3 e1 21 4e e9 6f 8c 43 27 7f 52 73 76
       -57 -79 79 -29 -31 33 78 -23 111 -116 67 39 127 82 115 118
0000c0 64 7f 5f 62 58 ae e1 86 1f 1c 81 4c 81 e0 c7 0e
       100 127 95 98 88 -82 -31 -122 31 28 -127 76 -127 -32 -57 14
0000d0 7f 61 22 65 89 d8 a5 10 17 02 94 87 f5 f5 4c f7
       127 97 34 101 -119 -40 -91 16 23 2 -108 -121 -11 -11 76 -9
0000e0 89 7f ae b0 0e 6a fa f1 3d f3 89 db 91 5f 1a 7f
       -119 127 -82 -80 14 106 -6 -15 61 -13 -119 -37 -111 95 26 127
0000f0 38 6c 42 b3 7f 94 b6 cc ad 86 58 c6 44 f5 81 60
       56 108 66 -77 127 -108 -74 -52 -83 -122 88 -58 68 -11 -127 96

model/extras_convbias/Conv2D i1 [64, 1, 1, 256]
000000 79 87 f5 81 59 7d aa 3f db 17 eb 23 88 25 6d b9
       121 -121 -11 -127 89 125 -86 63 -37 23 -21 35 -120 37 109 -71
000010 23 63 30 4b 3a ba 2a ab d1 98 84 c4 49 7a 9a 74
       35 99 48 75 58 -70 42 -85 -47 -104 -124 -60 73 122 -102 116
000020 cf 20 a7 c7 db d0 2c 5f c1 4a 79 db fd dc 19 ee
       -49 32 -89 -57 -37 -48 44 95 -63 74 121 -37 -3 -36 25 -18
000030 9b 8e af 13 c0 93 71 e2 87 f1 23 03 f9 cd f5 81
       -101 -114 -81 19 -64 -109 113 -30 -121 -15 35 3 -7 -51 -11 -127
000040 43 7a b2 4d 85 99 c0 bf 81 81 6b fe 0e d3 ef 7b
       67 122 -78 77 -123 -103 -64 -65 -127 -127 107 -2 14 -45 -17 123
000050 cd 06 81 5d c4 0e 98 65 ed 46 20 ee e3 99 e3 51
       -51 6 -127 93 -60 14 -104 101 -19 70 32 -18 -29 -103 -29 81
000060 b0 0a 5f 6a b2 57 e5 27 de 51 23 f0 03 62 64 47
       -80 10 95 106 -78 87 -27 39 -34 81 35 -16 3 98 100 71
000070 3e 35 97 89 ea 94 91 fa 4d 1c 99 d2 5f d8 d8 2e
       62 53 -105 -119 -22 -108 -111 -6 77 28 -103 -46 95 -40 -40 46
000080 47 ab c5 fc 67 26 a0 2e 60 c3 8a 08 bf 64 d9 97
       71 -85 -59 -4 103 38 -96 46 96 -61 -118 8 -65 100 -39 -105
000090 98 7d a8 99 01 90 df 8d 93 de ce fe 37 e0 68 73
       -104 125 -88 -103 1 -112 -33 -115 -109 -34 -50 -2 55 -32 104 115
0000a0 1a e0 d0 96 05 f2 cf 92 13 eb 42 9b 9e af b7 7e
       26 -32 -48 -106 5 -14 -49 -110 19 -21 66 -101 -98 -81 -73 126
0000b0 df 84 c9 67 b1 e0 b5 7a cd 46 50 5e af c0 09 e2
       -33 -124 -55 103 -79 -32 -75 122 -51 70 80 94 -81 -64 9 -30
0000c0 30 bf 9c 8a e6 78 28 7e 87 0e 1b 72 c2 a7 4d 1b
       48 -65 -100 -118 -26 120 40 126 -121 14 27 114 -62 -89 77 27
0000d0 14 65 ab e3 05 11 7a fd ec af 85 62 a4 b4 1c 68
       20 101 -85 -29 5 17 122 -3 -20 -81 -123 98 -92 -76 28 104
0000e0 08 a5 ae 29 c4 f0 be d1 b6 e2 bc 03 de 73 fa 18
       8 -91 -82 41 -60 -16 -66 -47 -74 -30 -68 3 -34 115 -6 24
0000f0 2a 87 31 85 85 24 a8 5d 70 00 2c 40 e9 7b 58 da
       42 -121 49 -123 -123 36 -88 93 112 0 44 64 -23 123 88 -38

model/cls_2_sep_convbias/Conv2D i1 [4, 1, 1, 256]
000000 f5 28 8e 2a ab 42 df 27 d8 28 3f 98 c6 31 ff ca
       -11 40 -114 42 -85 66 -33 39 -40 40 63 -104 -58 49 -1 -54
000010 c7 a5 08 27 94 bf c1 7d 8a 2e 5d c3 ee c0 21 df
       -57 -91 8 39 -108 -65 -63 125 -118 46 93 -61 -18 -64 33 -33
000020 3c 70 0e 83 18 c7 4f 83 d4 e6 2d b7 6a fd d0 c7
       60 112 14 -125 24 -57 79 -125 -44 -26 45 -73 106 -3 -48 -57
000030 1d 91 ab 59 e6 c0 52 47 1e 8d c8 b6 99 58 5c ef
       29 -111 -85 89 -26 -64 82 71 30 -115 -56 -74 -103 88 92 -17
000040 c0 7c da 39 4b 4a c1 50 e3 d9 a0 4e 60 6e 9c 3a
       -64 124 -38 57 75 74 -63 80 -29 -39 -96 78 96 110 -100 58
000050 be 75 12 0a ba a8 99 86 a9 f4 06 45 c3 bc 16 26
       -66 117 18 10 -70 -88 -103 -122 -87 -12 6 69 -61 -68 22 38
000060 29 9e 7c 32 cc 9c 4c 49 7c fa d5 4c 42 60 40 c1
       41 -98 124 50 -52 -100 76 73 124 -6 -43 76 66 96 64 -63
000070 83 24 10 f1 33 c8 bf 54 a6 86 6c ec 57 67 ef 59
       -125 36 16 -15 51 -56 -65 84 -90 -122 108 -20 87 103 -17 89
000080 b9 b5 87 83 51 67 36 95 fa 4a 1e f2 9b 9d 49 66
       -71 -75 -121 -125 81 103 54 -107 -6 74 30 -14 -101 -99 73 102
000090 34 0a 4a 87 a1 76 d0 cf 6d ba 4d 5b 3a 7f aa 1e
       52 10 74 -121 -95 118 -48 -49 109 -70 77 91 58 127 -86 30
0000a0 c3 ef 15 d7 a5 75 04 98 11 5d fe 4e 2b d8 bc 6f
       -61 -17 21 -41 -91 117 4 -104 17 93 -2 78 43 -40 -68 111
0000b0 45 6f 58 73 eb e5 bb 14 e4 8e 75 da ec ef 9a c3
       69 111 88 115 -21 -27 -69 20 -28 -114 117 -38 -20 -17 -102 -61
0000c0 73 11 82 88 eb ff ce 8d 51 02 d9 32 81 68 7a 24
       115 17 -126 -120 -21 -1 -50 -115 81 2 -39 50 -127 104 122 36
0000d0 b9 ed ea c0 00 fd 5e a8 b7 f1 b2 6f f3 c6 6c cb
       -71 -19 -22 -64 0 -3 94 -88 -73 -15 -78 111 -13 -58 108 -53
0000e0 7e 73 b1 f8 ee 3e 74 e1 6d 72 dd 6c b9 00 a8 9f
       126 115 -79 -8 -18 62 116 -31 109 114 -35 108 -71 0 -88 -97
0000f0 90 32 1c 7e c4 e7 d2 7c 84 de bc 75 3e e1 46 0e
       -112 50 28 126 -60 -25 -46 124 -124 -34 -68 117 62 -31 70 14

model/cls_2_sep_dconvbias/depthwise i1 [1, 3, 3, 256]
000000 ac 81 a4 7a 28 06 c3 bf d6 f3 7f 62 65 d9 1c f9
       -84 -127 -92 122 40 6 -61 -65 -42 -13 127 98 101 -39 28 -7
000010 21 bd 53 81 7f ac e9 27 b0 7f 34 31 8c ca f4 b3
       33 -67 83 -127 127 -84 -23 39 -80 127 52 49 -116 -54 -12 -77
000020 ee 7f 59 2f 81 40 23 08 35 00 78 38 3e 11 d8 4f
       -18 127 89 47 -127 64 35 8 53 0 120 56 62 17 -40 79
000030 37 16 2f 25 24 53 7f 81 30 c2 bf 7f bd b8 81 1c
       55 22 47 37 36 83 127 -127 48 -62 -65 127 -67 -72 -127 28
000040 03 6a 9c a6 3e b7 96 7e 92 52 3a a4 9c 3f 7f fb
       3 106 -100 -90 62 -73 -106 126 -110 82 58 -92 -100 63 127 -5
000050 17 23 75 81 4d 6a 24 f9 ae b4 5d db b4 6b d4 24
       23 35 117 -127 77 106 36 -7 -82 -76 93 -37 -76 107 -44 36
000060 89 f7 c9 a7 40 6d 2e a6 8e 62 bd 67 f3 9f c7 7f
       -119 -9 -55 -89 64 109 46 -90 -114 98 -67 103 -13 -97 -57 127
000070 57 e3 47 5f 4e d5 99 49 8b ff c3 81 6f 17 dc 7f
       87 -29 71 95 78 -43 -103 73 -117 -1 -61 -127 111 23 -36 127
000080 61 9e cc 0b 39 7f 26 cd 60 2a 5a 99 7a 7f 22 5a
       97 -98 -52 11 57 127 38 -51 96 42 90 -103 122 127 34 90
000090 7f 7f 63 42 4d d8 91 ee 11 98 42 a7 68 a3 fa 59
       127 127 99 66 77 -40 -111 -18 17 -104 66 -89 104 -93 -6 89
0000a0 a2 2e 54 b5 7f c9 07 d9 81 50 cc ac d3 7a fa 7b
       -94 46 84 -75 127 -55 7 -39 -127 80 -52 -84 -45 122 -6 123
0000b0 7f 1b 69 7f e2 a8 9d 3d b5 18 d4 7d 41 81 ea 81
       127 27 105 127 -30 -88 -99 61 -75 24 -44 125 65 -127 -22 -127
0000c0 69 87 d8 b5 64 5d 17 0a 7f 4d 48 81 7f 7f aa 81
       105 -121 -40 -75 100 93 23 10 127 77 72 -127 127 127 -86 -127
0000d0 8e 3d 50 25 d8 d2 ee 6b 95 67 b3 c2 e7 15 63 f3
       -114 61 80 37 -40 -46 -18 107 -107 103 -77 -62 -25 21 99 -13
0000e0 c1 7f 0f 5e c9 e3 32 90 5c ba ad 7f 1a c3 bf 42
       -63 127 15 94 -55 -29 50 -112 92 -70 -83 127 26 -61 -65 66
0000f0 74 76 ab d0 e2 5e 69 86 eb 90 1f 7f 7f a2 07 8a
       116 118 -85 -48 -30 94 105 -122 -21 -112 31 127 127 -94 7 -118

model/cls_1_sep_convbias/Conv2D i1 [4, 1, 1, 128]
000000 2d fb 2f 0d 43 8e fa 02 e5 9e f2 a4 4b 33 ea 0f
       45 -5 47 13 67 -114 -6 2 -27 -98 -14 -92 75 51 -22 15
000010 92 53 b7 09 e4 e2 9b 6c e6 27 6e 85 c1 f4 0c 06
       -110 83 -73 9 -28 -30 -101 108 -26 39 110 -123 -63 -12 12 6
000020 cc 70 b8 14 8e 86 94 de 12 c6 b8 3f 77 0a 37 fa
       -52 112 -72 20 -114 -122 -108 -34 18 -58 -72 63 119 10 55 -6
000030 84 2c ff bd 4b 9e 03 0d b9 c2 c1 68 87 81 18 a1
       -124 44 -1 -67 75 -98 3 13 -71 -62 -63 104 -121 -127 24 -95
000040 e4 5a 88 fa 5d 7c a4 f3 e7 74 3f 2a 7b 61 11 2a
       -28 90 -120 -6 93 124 -92 -13 -25 116 63 42 123 97 17 42
000050 b8 01 f2 32 de 14 2f 87 be 8e 1f c2 1f b7 f3 42
       -72 1 -14 50 -34 20 47 -121 -66 -114 31 -62 31 -73 -13 66
000060 ad 85 7c de 34 01 30 1d c5 ab ba 87 7b 5c 6b b5
       -83 -123 124 -34 52 1 48 29 -59 -85 -70 -121 123 92 107 -75
000070 c2 07 26 96 aa 2a d9 ef 7c 4b ae 4d d0 08 a8 97
       -62 7 38 -106 -86 42 -39 -17 124 75 -82 77 -48 8 -88 -105
000080 ce 23 24 ac 8a f2 7b ac 06 fb 23 68 01 3b 5e 73
       -50 35 36 -84 -118 -14 123 -84 6 -5 35 104 1 59 94 115
000090 d8 f2 f7 bb 85 e1 37 b5 a0 f1 b0 f9 47 a7 57 8b
       -40 -14 -9 -69 -123 -31 55 -75 -96 -15 -80 -7 71 -89 87 -117
0000a0 2e 7e 24 cc de 64 bb aa 13 bd 33 56 4a 0e 72 61
       46 126 36 -52 -34 100 -69 -86 19 -67 51 86 74 14 114 97
0000b0 99 c8 ee e1 a5 44 b8 1f b4 d6 7a f7 92 dd 2e 8f
       -103 -56 -18 -31 -91 68 -72 31 -76 -42 122 -9 -110 -35 46 -113
0000c0 9d fb 03 48 c2 bb 5f c6 00 99 3d db 8c da 84 d7
       -99 -5 3 72 -62 -69 95 -58 0 -103 61 -37 -116 -38 -124 -41
0000d0 0c f1 81 d8 4a 59 eb 3d 06 07 a1 30 cb 6e 90 cf
       12 -15 -127 -40 74 89 -21 61 6 7 -95 48 -53 110 -112 -49
0000e0 d6 69 66 23 d1 a0 62 b1 65 b4 25 f5 ba dc 32 09
       -42 105 102 35 -47 -96 98 -79 101 -76 37 -11 -70 -36 50 9
0000f0 d2 56 2a 44 52 4f 9b 5b e1 f1 89 fd 5e 63 c3 6e
       -46 86 42 68 82 79 -101 91 -31 -15 -119 -3 94 99 -61 110

model/cls_1_sep_dconvbias/depthwise i1 [1, 3, 3, 128]
000000 9a 1c 59 c0 11 08 64 f3 d5 4c a8 87 43 77 6d cf
       -102 28 89 -64 17 8 100 -13 -43 76 -88 -121 67 119 109 -49
000010 4b 10 81 81 07 ef 55 7f f9 c6 fb 7e 5f fb 7c 20
       75 16 -127 -127 7 -17 85 127 -7 -58 -5 126 95 -5 124 32
000020 ab 7f 10 27 94 eb 08 02 63 88 ae b2 cd 7d 1b ae
       -85 127 16 39 -108 -21 8 2 99 -120 -82 -78 -51 125 27 -82
000030 91 8c 30 04 bd 92 9e 14 bd ba 10 78 24 35 c9 30
       -111 -116 48 4 -67 -110 -98 20 -67 -70 16 120 36 53 -55 48
000040 da 39 0c 8b 7f cd 8d 31 7b 84 5b 2d 21 7f ae 81
       -38 57 12 -117 127 -51 -115 49 123 -124 91 45 33 127 -82 -127
000050 96 c6 ba f3 60 2f 43 35 a6 13 01 f3 c6 5e 26 11
       -106 -58 -70 -13 96 47 67 53 -90 19 1 -13 -58 94 38 17
000060 67 7f 7a 2d 6a 01 d8 78 8c 6c 6d f6 31 51 8a 81
       103 127 122 45 106 1 -40 120 -116 108 109 -10 49 81 -118 -127
000070 3d 93 ed 0c 7f 50 8b f4 55 10 21 81 a2 d5 06 12
       61 -109 -19 12 127 80 -117 -12 85 16 33 -127 -94 -43 6 18
000080 32 42 99 9f ae 83 68 1b 6b b9 81 75 46 1a c6 ba
       50 66 -103 -97 -82 -125 104 27 107 -71 -127 117 70 26 -58 -70
000090 de e7 9f 1e d5 7a 7b 3b b7 da 78 f7 19 5d a1 27
       -34 -25 -97 30 -43 122 123 59 -73 -38 120 -9 25 93 -95 39
0000a0 68 92 60 52 1d 7f eb 7f 51 0d b1 e4 42 44 51 7f
       104 -110 96 82 29 127 -21 127 81 13 -79 -28 66 68 81 127
0000b0 7d ab 51 ea ce 0c 32 3f 92 36 4e ed e8 81 f7 6a
       125 -85 81 -22 -50 12 50 63 -110 54 78 -19 -24 -127 -9 106
0000c0 73 70 5d db 0b 52 53 c9 22 92 a6 9c db 92 67 43
       115 112 93 -37 11 82 83 -55 34 -110 -90 -100 -37 -110 103 67
0000d0 ba 1b ce d5 ff 98 81 87 7c 9e 48 04 38 d0 ef ff
       -70 27 -50 -43 -1 -104 -127 -121 124 -98 72 4 56 -48 -17 -1
0000e0 7f e7 81 fd aa cb 05 1d f0 61 98 d9 ce 99 3e 3d
       127 -25 -127 -3 -86 -53 5 29 -16 97 -104 -39 -50 -103 62 61
0000f0 b0 e5 83 70 15 03 7f 53 8e 7f d1 4a c9 46 89 77
       -80 -27 -125 112 21 3 127 83 -114 127 -47 74 -55 70 -119 119

model/cls_0_sep_convbias/Conv2D i1 [6, 1, 1, 64]
000000 17 37 af f1 06 4f ff bb de 10 16 c6 29 c1 82 08
       23 55 -81 -15 6 79 -1 -69 -34 16 22 -58 41 -63 -126 8
000010 a3 40 e7 fc a6 de 7f d1 20 fe b2 1a 04 85 36 20
       -93 64 -25 -4 -90 -34 127 -47 32 -2 -78 26 4 -123 54 32
000020 e2 a2 84 6b b0 bf 42 11 32 00 59 f4 ea aa 0f ec
       -30 -94 -124 107 -80 -65 66 17 50 0 89 -12 -22 -86 15 -20
000030 6b 72 be f2 83 07 7b a2 23 9a 04 1c 0a 79 c6 30
       107 114 -66 -14 -125 7 123 -94 35 -102 4 28 10 121 -58 48
000040 8f 77 4c a3 6e 54 3e bd ca 22 f6 53 4d 83 48 97
       -113 119 76 -93 110 84 62 -67 -54 34 -10 83 77 -125 72 -105
000050 92 2b 15 cd 3d 41 14 1a 95 34 5b c9 44 4d c1 31
       -110 43 21 -51 61 65 20 26 -107 52 91 -55 68 77 -63 49
000060 35 b0 81 c8 04 eb 1a 5b b5 49 c0 a0 ba 02 30 43
       53 -80 -127 -56 4 -21 26 91 -75 73 -64 -96 -70 2 48 67
000070 dc fb 7a ce ad d3 05 50 78 02 8c 69 c8 8c 90 fe
       -36 -5 122 -50 -83 -45 5 80 120 2 -116 105 -56 -116 -112 -2
000080 87 20 ed 55 4f b1 9c 9d 2c b5 be 9b d1 03 f1 78
       -121 32 -19 85 79 -79 -100 -99 44 -75 -66 -101 -47 3 -15 120
000090 95 cf 2d 02 30 ab 50 e3 81 b0 bd 97 23 b2 dd 1b
       -107 -49 45 2 48 -85 80 -29 -127 -80 -67 -105 35 -78 -35 27
0000a0 b7 97 00 15 ce 06 b4 69 d9 ee 44 46 f4 57 74 52
       -73 -105 0 21 -50 6 -76 105 -39 -18 68 70 -12 87 116 82
0000b0 ab ef 03 43 a2 a4 03 45 da 19 59 4f 90 d0 0f 93
       -85 -17 3 67 -94 -92 3 69 -38 25 89 79 -112 -48 15 -109
0000c0 25 a6 6f c9 50 34 4a 6e ca c0 2d 15 b8 f5 fa 4c
       37 -90 111 -55 80 52 74 110 -54 -64 45 21 -72 -11 -6 76
0000d0 cf 88 c9 fd f5 48 da 87 c5 62 38 fb 36 98 58 68
       -49 -120 -55 -3 -11 72 -38 -121 -59 98 56 -5 54 -104 88 104
0000e0 52 71 ed fd 45 15 58 85 4c e8 a6 a8 31 aa 66 88
       82 113 -19 -3 69 21 88 -123 76 -24 -90 -88 49 -86 102 -120
0000f0 13 5b 1e b5 7f 2a db 82 1e 55 54 d9 e0 9e 4f 50
       19 91 30 -75 127 42 -37 -126 30 85 84 -39 -32 -98 79 80

model/cls_0_sep_dconvbias/depthwise i1 [1, 3, 3, 64]
000000 0d 73 e8 b9 7f ca 4e 81 7f be 2e c9 9c d9 7f 8e
       13 115 -24 -71 127 -54 78 -127 127 -66 46 -55 -100 -39 127 -114
000010 d3 8c 12 26 e8 7f 62 64 98 02 7f fb 49 21 d8 2d
       -45 -116 18 38 -24 127 98 100 -104 2 127 -5 73 33 -40 45
000020 b3 4e 0b 59 b7 7f 81 7f 2c 91 45 0d 30 d7 4c 32
       -77 78 11 89 -73 127 -127 127 44 -111 69 13 48 -41 76 50
000030 9c ec 10 c7 af 06 f5 33 77 e5 0e 70 ce ea 6a 1a
       -100 -20 16 -57 -81 6 -11 51 119 -27 14 112 -50 -22 106 26
000040 7f 81 4e a6 2c 53 d4 5a 8c 81 d1 19 67 af a0 17
       127 -127 78 -90 44 83 -44 90 -116 -127 -47 25 103 -81 -96 23
000050 87 55 b4 0d 2b 4e 8d a7 8f 81 05 3b 9d 5d ab 7f
       -121 85 -76 13 43 78 -115 -89 -113 -127 5 59 -99 93 -85 127
000060 bc 37 56 a7 03 2b e2 0e 5a 29 f0 8b 16 20 2b 65
       -68 55 86 -89 3 43 -30 14 90 41 -16 -117 22 32 43 101
000070 56 7f a7 7f 21 bc b5 18 2f 83 69 5d a3 30 60 81
       86 127 -89 127 33 -68 -75 24 47 -125 105 93 -93 48 96 -127
000080 a3 62 af 08 c1 85 26 26 0b e3 36 e4 3f fb b0 7f
       -93 98 -81 8 -63 -123 38 38 11 -29 54 -28 63 -5 -80 127
000090 7f 7a 62 81 94 44 81 7e 7f 93 50 8c 04 2c f9 ba
       127 122 98 -127 -108 68 -127 126 127 -109 80 -116 4 44 -7 -70
0000a0 7f 97 b4 64 7f 41 41 85 04 e4 7f c6 43 84 7f 54
       127 -105 -76 100 127 65 65 -123 4 -28 127 -58 67 -124 127 84
0000b0 7f b4 e0 f6 83 81 c4 64 7a 61 d1 4f 79 d9 43 99
       127 -76 -32 -10 -125 -127 -60 100 122 97 -47 79 121 -39 67 -103
0000c0 37 59 58 c9 50 81 81 c0 55 16 e2 cb e8 f2 29 9a
       55 89 88 -55 80 -127 -127 -64 85 22 -30 -53 -24 -14 41 -102
0000d0 2b de c0 8a 7f 5d e6 f1 31 f5 48 b7 64 c8 0e cb
       43 -34 -64 -118 127 93 -26 -15 49 -11 72 -73 100 -56 14 -53
0000e0 e4 e0 7f 26 1c d3 64 44 37 98 fd c2 6b cb 54 45
       -28 -32 127 38 28 -45 100 68 55 -104 -3 -62 107 -53 84 69
0000f0 57 33 7f 6e e3 2e 3a c1 7f b1 81 25 09 8f 1f a7
       87 51 127 110 -29 46 58 -63 127 -79 -127 37 9 -113 31 -89

model/basenet.12.3_conv/Conv2D i1 [256, 1, 1, 256]
000000 79 18 9c bf 36 6a b0 2b 6b ec c9 0d 3b 4b c4 26
       121 24 -100 -65 54 106 -80 43 107 -20 -55 13 59 75 -60 38
000010 3a 5a 64 88 1e b8 a0 77 83 8d 61 4b 3c f0 54 3a
       58 90 100 -120 30 -72 -96 119 -125 -115 97 75 60 -16 84 58
000020 95 87 f6 02 44 0f 28 c8 ce 20 0d 7b cb c9 62 8b
       -107 -121 -10 2 68 15 40 -56 -50 32 13 123 -53 -55 98 -117
000030 15 b4 a7 81 4c 7e 4e 8e 85 a1 87 42 91 6c 86 f3
       21 -76 -89 -127 76 126 78 -114 -123 -95 -121 66 -111 108 -122 -13
000040 0f 25 98 b3 4c fc 54 fd f9 8f e0 98 0c ff a1 a0
       15 37 -104 -77 76 -4 84 -3 -7 -113 -32 -104 12 -1 -95 -96
000050 5b c8 3e d0 28 75 f2 85 fe df 6d 92 2d c8 85 7d
       91 -56 62 -48 40 117 -14 -123 -2 -33 109 -110 45 -56 -123 125
000060 7d 6d 77 71 e1 b0 dc 50 99 1d 34 64 b3 9c 34 41
       125 109 119 113 -31 -80 -36 80 -103 29 52 100 -77 -100 52 65
000070 d6 6f 71 63 74 91 16 28 2f 82 5d 97 fa 67 02 94
       -42 111 113 99 116 -111 22 40 47 -126 93 -105 -6 103 2 -108
000080 c9 a0 81 d7 4d 1e 20 aa 55 9c 50 b6 5b 83 b6 02
       -55 -96 -127 -41 77 30 32 -86 85 -100 80 -74 91 -125 -74 2
000090 79 4c 78 66 69 ff ab 95 5d fe bd c4 62 1d 8e 6e
       121 76 120 102 105 -1 -85 -107 93 -2 -67 -60 98 29 -114 110
0000a0 22 bd 2b 61 7c 2c f9 ff c4 47 06 14 3b 81 a9 8c
       34 -67 43 97 124 44 -7 -1 -60 71 6 20 59 -127 -87 -116
0000b0 01 05 bb 21 df 40 a6 8f 2e 35 41 c0 f3 df d9 4d
       1 5 -69 33 -33 64 -90 -113 46 53 65 -64 -13 -33 -39 77
0000c0 bf b3 31 20 c4 d0 74 a7 a3 88 21 f3 d8 ca 9e 0f
       -65 -77 49 32 -60 -48 116 -89 -93 -120 33 -13 -40 -54 -98 15
0000d0 cd 7a c7 eb d7 b9 b3 d9 4d e7 f6 66 9b 3f a5 53
       -51 122 -57 -21 -41 -71 -77 -39 77 -25 -10 102 -101 63 -91 83
0000e0 19 4a 4f 3f 1e f7 85 f5 32 09 75 3a 8f 4f e0 0e
       25 74 79 63 30 -9 -123 -11 50 9 117 58 -113 79 -32 14
0000f0 92 31 35 b6 f1 f0 9e fc f1 32 6d 2e 35 59 f8 ec
       -110 49 53 -74 -15 -16 -98 -4 -15 50 109 46 53 89 -8 -20

model/basenet.12.1_bn/FusedBatchNormV3;model/basenet.12.0_dconv/depthwise;model/basenet.11.4_bn/FusedBatchNormV3/ReadVariableOp;model/basenet.12.4_bn/FusedBatchNormV3 i1 [1, 3, 3, 256]
000000 c8 dd 69 cc f6 6f 81 81 0a 49 fa 15 fb 87 c2 d9
       -56 -35 105 -52 -10 111 -127 -127 10 73 -6 21 -5 -121 -62 -39
000010 66 84 33 6f 69 45 9a 6b 7f ad 4a cc a7 93 2f e4
       102 -124 51 111 105 69 -102 107 127 -83 74 -52 -89 -109 47 -28
000020 17 3f 66 85 64 08 bd 84 08 b1 36 7f 6c a8 f3 9b
       23 63 102 -123 100 8 -67 -124 8 -79 54 127 108 -88 -13 -101
000030 7f 08 99 a2 d6 75 7f 1b 00 81 87 aa 7f bd 86 81
       127 8 -103 -94 -42 117 127 27 0 -127 -121 -86 127 -67 -122 -127
000040 8c 6a b8 6a 7f e9 d3 1a 27 a8 c2 78 72 7f 92 a0
       -116 106 -72 106 127 -23 -45 26 39 -88 -62 120 114 127 -110 -96
000050 8e 99 8b e3 fd ec 48 1b 4b 81 a1 71 13 14 d8 b1
       -114 -103 -117 -29 -3 -20 72 27 75 -127 -95 113 19 20 -40 -79
000060 7c a4 5d 0e 38 e3 7c 43 79 9f 81 85 81 33 ec d9
       124 -92 93 14 56 -29 124 67 121 -97 -127 -123 -127 51 -20 -39
000070 ea 79 fe 34 a5 75 3f bd a5 47 2f 4b f1 c7 7a 7f
       -22 121 -2 52 -91 117 63 -67 -91 71 47 75 -15 -57 122 127
000080 88 cf 3d 1a 26 41 53 1c 7f 6a 2d cf a1 0e 81 7f
       -120 -49 61 26 38 65 83 28 127 106 45 -49 -95 14 -127 127
000090 18 7f 7f 03 26 6d a5 5c 51 2f 4e 5e 9d ca 99 7f
       24 127 127 3 38 109 -91 92 81 47 78 94 -99 -54 -103 127
0000a0 8a 13 44 a0 40 7c 3c 31 cb 3b 4e 0d 81 34 81 b7
       -118 19 68 -96 64 124 60 49 -53 59 78 13 -127 52 -127 -73
0000b0 52 32 06 cc f2 ec 81 4e a2 d6 3a dc b8 cf 9a 7f
       82 50 6 -52 -14 -20 -127 78 -94 -42 58 -36 -72 -49 -102 127
0000c0 53 70 79 fb 97 d9 d8 81 26 ab 7f 9d fe 65 56 81
       83 112 121 -5 -105 -39 -40 -127 38 -85 127 -99 -2 101 86 -127
0000d0 07 4c b7 be bd fb 81 76 66 81 0e 13 bc a5 7f 8d
       7 76 -73 -66 -67 -5 -127 118 102 -127 14 19 -68 -91 127 -115
0000e0 bf 2d 0d 46 51 48 0d c9 97 72 ee d6 7f 31 7f 6b
       -65 45 13 70 81 72 13 -55 -105 114 -18 -42 127 49 127 107
0000f0 51 27 d6 70 73 5d d5 0a 98 3f 3a e7 bc 88 1d c1
       81 39 -42 112 115 93 -43 10 -104 63 58 -25 -68 -120 29 -63

model/basenet.11.3_conv/Conv2D i1 [256, 1, 1, 128]
000000 73 51 de 26 74 8e f2 29 f1 91 b0 a4 6f 1c 1a 1b
       115 81 -34 38 116 -114 -14 41 -15 -111 -80 -92 111 28 26 27
000010 51 81 9e 44 a2 0a af 93 74 5e 04 37 5b e9 90 9d
       81 -127 -98 68 -94 10 -81 -109 116 94 4 55 91 -23 -112 -99
000020 3b 2e d7 54 b9 67 4f 64 d0 93 4d fb ef f4 b6 3a
       59 46 -41 84 -71 103 79 100 -48 -109 77 -5 -17 -12 -74 58
000030 6b cb 51 e4 00 f6 bd 6f 17 bd e0 09 45 56 bf ef
       107 -53 81 -28 0 -10 -67 111 23 -67 -32 9 69 86 -65 -17
000040 ea a1 09 6f f8 50 ae 4e 2f b6 a2 58 da 72 32 4d
       -22 -95 9 111 -8 80 -82 78 47 -74 -94 88 -38 114 50 77
000050 78 e5 eb 97 17 3d 5a b2 6e fc 83 7e a7 35 e1 ec
       120 -27 -21 -105 23 61 90 -78 110 -4 -125 126 -89 53 -31 -20
000060 71 36 04 94 12 93 3b a7 c2 73 0f 15 54 a8 6d 00
       113 54 4 -108 18 -109 59 -89 -62 115 15 21 84 -88 109 0
000070 ca 94 bb ed b1 9a a2 89 82 de b2 8d 88 ac ff 49
       -54 -108 -69 -19 -79 -102 -94 -119 -126 -34 -78 -115 -120 -84 -1 73
000080 c4 9a cb 8d d2 b8 5f b6 7e 45 1f 49 ed 67 ea f9
       -60 -102 -53 -115 -46 -72 95 -74 126 69 31 73 -19 103 -22 -7
000090 ff ad d1 3d ea 56 4c 2a 72 e5 69 48 b8 c0 37 10
       -1 -83 -47 61 -22 86 76 42 114 -27 105 72 -72 -64 55 16
0000a0 fb 6e 0a 42 7e e0 c7 0d cd c6 b4 96 06 78 dc e6
       -5 110 10 66 126 -32 -57 13 -51 -58 -76 -106 6 120 -36 -26
0000b0 27 47 ba 59 2b e4 cf 91 02 f8 d3 95 d9 b0 6d b1
       39 71 -70 89 43 -28 -49 -111 2 -8 -45 -107 -39 -80 109 -79
0000c0 00 d6 90 f2 22 3e bd 22 5a ed 7f ab 9b 5e 43 b3
       0 -42 -112 -14 34 62 -67 34 90 -19 127 -85 -101 94 67 -77
0000d0 97 74 e5 16 33 1d 37 8f 42 6d d1 28 0b 92 21 b4
       -105 116 -27 22 51 29 55 -113 66 109 -47 40 11 -110 33 -76
0000e0 e3 4d d6 74 5e 73 d1 eb 88 c7 c5 92 94 38 a9 2c
       -29 77 -42 116 94 115 -47 -21 -120 -57 -59 -110 -108 56 -87 44
0000f0 c8 42 ff 1f 8c 6a cb da f4 08 34 e9 9d f3 8d 09
       -56 66 -1 31 -116 106 -53 -38 -12 8 52 -23 -99 -13 -115 9

model/basenet.11.1_bn/FusedBatchNormV3;model/basenet.11.0_dconv/depthwise;model/basenet.10.1_bn/FusedBatchNormV3/ReadVariableOp i1 [1, 3, 3, 128]
000000 2c db 68 f6 b0 12 53 26 e3 8d 34 f1 f1 fe 2b f6
       44 -37 104 -10 -80 18 83 38 -29 -115 52 -15 -15 -2 43 -10
000010 90 ac 74 fa f9 32 3b 7f ac b2 34 a2 5a 96 0c 4e
       -112 -84 116 -6 -7 50 59 127 -84 -78 52 -94 90 -106 12 78
000020 f6 c0 cc 00 7f 07 7f 66 24 83 a9 c5 d4 96 70 84
       -10 -64 -52 0 127 7 127 102 36 -125 -87 -59 -44 -106 112 -124
000030 20 cc 89 49 6a a9 7f cd 53 fb a8 d8 10 a5 f6 e3
       32 -52 -119 73 106 -87 127 -51 83 -5 -88 -40 16 -91 -10 -29
000040 95 05 37 a4 ca 1e 8f 9d fa 11 78 4d 7f d8 09 94
       -107 5 55 -92 -54 30 -113 -99 -6 17 120 77 127 -40 9 -108
000050 97 39 81 5c 39 7c ca d4 81 d8 7f 17 e9 27 8a 82
       -105 57 -127 92 57 124 -54 -44 -127 -40 127 23 -23 39 -118 -126
000060 8f 4e 8a 0d 6f 4f 1c 16 ef 0e 05 72 bb cc b7 ea
       -113 78 -118 13 111 79 28 22 -17 14 5 114 -69 -52 -73 -22
000070 a0 88 7f d3 6c 01 50 1d 5d b2 81 af 29 9e ce 00
       -96 -120 127 -45 108 1 80 29 93 -78 -127 -81 41 -98 -50 0
000080 81 7f 52 e2 f6 6b be 4c 12 ca 88 7f 79 30 15 91
       -127 127 82 -30 -10 107 -66 76 18 -54 -120 127 121 48 21 -111
000090 19 02 c8 05 97 ac 81 7b 4a d7 ea 6a d1 38 fd 6b
       25 2 -56 5 -105 -84 -127 123 74 -41 -22 106 -47 56 -3 107
0000a0 7f 20 bc 21 41 ee 95 c0 1a 73 db 6b db db 96 4c
       127 32 -68 33 65 -18 -107 -64 26 115 -37 107 -37 -37 -106 76
0000b0 43 62 79 8f 7f 81 ab 44 eb 7f b8 f7 b8 2e 97 39
       67 98 121 -113 127 -127 -85 68 -21 127 -72 -9 -72 46 -105 57
0000c0 31 cb f6 da 36 7f 89 b8 c6 81 c4 7f e1 b7 f7 3a
       49 -53 -10 -38 54 127 -119 -72 -58 -127 -60 127 -31 -73 -9 58
0000d0 f8 fd 7a 12 4f 78 7f 29 98 ad b2 d8 0b 74 53 31
       -8 -3 122 18 79 120 127 41 -104 -83 -78 -40 11 116 83 49
0000e0 bb a2 81 24 d5 f8 1b f8 81 e7 ed 59 65 39 f4 cd
       -69 -94 -127 36 -43 -8 27 -8 -127 -25 -19 89 101 57 -12 -51
0000f0 e2 15 14 7f 7f 4c f0 8b a6 e7 36 7c 18 be de f8
       -30 21 20 127 127 76 -16 -117 -90 -25 54 124 24 -66 -34 -8

model/basenet.10.3_conv/Conv2D i1 [128, 1, 1, 128]
000000 40 62 ea e9 cd 46 db 2d 2b 20 53 81 3d 65 6d c7
       64 98 -22 -23 -51 70 -37 45 43 32 83 -127 61 101 109 -57
000010 66 00 4c b5 f4 47 fd f6 c5 0d 9d 31 bc 8f 43 a8
       102 0 76 -75 -12 71 -3 -10 -59 13 -99 49 -68 -113 67 -88
000020 af 1d fa 56 f8 61 e5 e3 55 a3 c9 fd fd 26 b2 20
       -81 29 -6 86 -8 97 -27 -29 85 -93 -55 -3 -3 38 -78 32
000030 67 3d 7b 27 58 2f 6c 99 11 8f 07 e3 b7 26 89 af
       103 61 123 39 88 47 108 -103 17 -113 7 -29 -73 38 -119 -81
000040 c3 68 03 b4 61 87 7b 0c 14 d7 55 5a 4e e9 3e 93
       -61 104 3 -76 97 -121 123 12 20 -41 85 90 78 -23 62 -109
000050 e8 59 47 52 08 c9 b9 63 5a 8a 48 e0 45 42 af b6
       -24 89 71 82 8 -55 -71 99 90 -118 72 -32 69 66 -81 -74
000060 14 ac d8 03 9a 52 b0 b1 a5 6a ad 3b ab 3e eb c8
       20 -84 -40 3 -102 82 -80 -79 -91 106 -83 59 -85 62 -21 -56
000070 8d ae 38 f7 7d 7a 4f 7a 7a 94 cd 49 57 18 00 8f
       -115 -82 56 -9 125 122 79 122 122 -108 -51 73 87 24 0 -113
000080 0b bd c9 9d 45 c4 73 da 67 8b 9b 17 27 13 d1 16
       11 -67 -55 -99 69 -60 115 -38 103 -117 -101 23 39 19 -47 22
000090 76 9b ba 48 20 4a 09 00 3c fa 5a 74 6a ed 27 21
       118 -101 -70 72 32 74 9 0 60 -6 90 116 106 -19 39 33
0000a0 84 f9 af 34 81 eb b2 20 d3 4d b6 61 ea ae 06 ac
       -124 -7 -81 52 -127 -21 -78 32 -45 77 -74 97 -22 -82 6 -84
0000b0 29 56 7a e8 5b 41 f0 d6 31 6e dc b5 f2 6a 52 c6
       41 86 122 -24 91 65 -16 -42 49 110 -36 -75 -14 106 82 -58
0000c0 4f e3 6a 85 fb 9f 09 ba a0 72 fd 3a 8f d4 bb cd
       79 -29 106 -123 -5 -97 9 -70 -96 114 -3 58 -113 -44 -69 -51
0000d0 37 6c 5e 4d 35 eb 71 5c 0a 96 e5 d6 3a ee 93 73
       55 108 94 77 53 -21 113 92 10 -106 -27 -42 58 -18 -109 115
0000e0 0e 58 79 0a 03 8f 66 b3 c5 e0 e1 ac 25 7c 23 28
       14 88 121 10 3 -113 102 -77 -59 -32 -31 -84 37 124 35 40
0000f0 08 60 2b b7 5c b9 9f bc e0 d4 ae 18 5f c5 e8 0f
       8 96 43 -73 92 -71 -97 -68 -32 -44 -82 24 95 -59 -24 15

model/basenet.10.1_bn/FusedBatchNormV3;model/basenet.10.0_dconv/depthwise;model/basenet.10.1_bn/FusedBatchNormV3/ReadVariableOp;model/basenet.11.1_bn/FusedBatchNormV3 i1 [1, 3, 3, 128]
000000 aa 68 de 55 9d dd fd 8f f0 81 5b 81 3b f7 c8 a8
       -86 104 -34 85 -99 -35 -3 -113 -16 -127 91 -127 59 -9 -56 -88
000010 61 23 7f 86 af c9 ac f5 a5 c9 cf 7f 1c af 2b 84
       97 35 127 -122 -81 -55 -84 -11 -91 -55 -49 127 28 -81 43 -124
000020 42 8c 04 4f 41 30 5c e1 7f 78 81 3e f5 21 f5 29
       66 -116 4 79 65 48 92 -31 127 120 -127 62 -11 33 -11 41
000030 99 31 7a 7f 73 09 81 e3 81 81 c2 74 01 27 81 81
       -103 49 122 127 115 9 -127 -29 -127 -127 -62 116 1 39 -127 -127
000040 cb 7a 3a 81 c3 7d 85 e7 7f 81 a2 4d 26 02 6f c4
       -53 122 58 -127 -61 125 -123 -25 127 -127 -94 77 38 2 111 -60
000050 f5 52 a4 af 34 81 46 78 38 a7 4c 35 48 3b 54 b8
       -11 82 -92 -81 52 -127 70 120 56 -89 76 53 72 59 84 -72
000060 b1 0e 90 a5 c6 ae de b5 e2 c5 16 92 5d 7f f0 c7
       -79 14 -112 -91 -58 -82 -34 -75 -30 -59 22 -110 93 127 -16 -57
000070 81 81 de 7f 90 81 9d a7 92 81 07 46 a0 ae 4a 97
       -127 -127 -34 127 -112 -127 -99 -89 -110 -127 7 70 -96 -82 74 -105
000080 7b 70 79 52 10 59 b8 62 9d d5 04 71 da 7f 71 e9
       123 112 121 82 16 89 -72 98 -99 -43 4 113 -38 127 113 -23
000090 53 97 2d 27 1f ee 7f cc 05 e1 2e 11 e6 8f ce 09
       83 -105 45 39 31 -18 127 -52 5 -31 46 17 -26 -113 -50 9
0000a0 a2 a4 54 57 87 d6 77 81 94 f4 7a 38 06 a0 08 c7
       -94 -92 84 87 -121 -42 119 -127 -108 -12 122 56 6 -96 8 -57
0000b0 49 93 0b 30 5b 5b 05 ec 90 ae 96 0c 08 dd 23 e5
       73 -109 11 48 91 91 5 -20 -112 -82 -106 12 8 -35 35 -27
0000c0 f2 05 e3 5f d9 36 d5 f3 f5 ff 8b 68 d6 e0 99 98
       -14 5 -29 95 -39 54 -43 -13 -11 -1 -117 104 -42 -32 -103 -104
0000d0 9d eb ad 12 f1 d1 97 8e ec 32 31 3e c1 81 7f ce
       -99 -21 -83 18 -15 -47 -105 -114 -20 50 49 62 -63 -127 127 -50
0000e0 e8 6d 77 53 18 7f 22 be a6 7f 88 bd d7 b7 60 9c
       -24 109 119 83 24 127 34 -66 -90 127 -120 -67 -41 -73 96 -100
0000f0 01 df c6 4f 45 87 7f 32 b9 4f 15 9d 34 cd 06 f1
       1 -33 -58 79 69 -121 127 50 -71 79 21 -99 52 -51 6 -15

model/basenet.9.3_conv/Conv2D i1 [128, 1, 1, 128]
000000 8e ac 4e 1c 07 2f fd a2 b8 ae 45 d3 96 af bf 35
       -114 -84 78 28 7 47 -3 -94 -72 -82 69 -45 -106 -81 -65 53
000010 5e 15 96 f3 32 4e 3d 35 a1 1d 84 46 ef 63 da 5a
       94 21 -106 -13 50 78 61 53 -95 29 -124 70 -17 99 -38 90
000020 46 6b d2 bd 98 b9 7f 02 1c 1c 9c 7f 71 fe 36 2d
       70 107 -46 -67 -104 -71 127 2 28 28 -100 127 113 -2 54 45
000030 90 c5 0f ba d3 0d 97 a4 5d 78 46 1a 82 41 52 9f
       -112 -59 15 -70 -45 13 -105 -92 93 120 70 26 -126 65 82 -97
000040 f0 1e 4e ad 15 8b 24 dd 04 f2 b6 d9 59 36 b0 b7
       -16 30 78 -83 21 -117 36 -35 4 -14 -74 -39 89 54 -80 -73
000050 7f c3 63 5d f9 30 1b 1f 11 53 4d 73 4a ea cc 8c
       127 -61 99 93 -7 48 27 31 17 83 77 115 74 -22 -52 -116
000060 88 62 d8 92 bf 48 a1 3e 79 9b 76 62 84 68 65 c5
       -120 98 -40 -110 -65 72 -95 62 121 -101 118 98 -124 104 101 -59
000070 48 c8 13 87 fe ce b8 25 a1 48 eb b4 72 b8 ca bb
       72 -56 19 -121 -2 -50 -72 37 -95 72 -21 -76 114 -72 -54 -69
000080 25 90 96 31 a7 5e f7 9c 47 a9 73 ea e6 43 ee 61
       37 -112 -106 49 -89 94 -9 -100 71 -87 115 -22 -26 67 -18 97
000090 0f bc 4c c8 25 e8 5b e6 53 a0 e7 4c c8 da 75 a5
       15 -68 76 -56 37 -24 91 -26 83 -96 -25 76 -56 -38 117 -91
0000a0 09 d3 08 bf 64 75 ff e3 27 bd c8 15 40 5e 4c bb
       9 -45 8 -65 100 117 -1 -29 39 -67 -56 21 64 94 76 -69
0000b0 5b 3b 2f e9 8b ee 65 5e f8 eb 8a 8a b7 19 f8 33
       91 59 47 -23 -117 -18 101 94 -8 -21 -118 -118 -73 25 -8 51
0000c0 5c ba b7 cb 72 8f e6 47 c7 b9 18 83 a5 8d 17 c4
       92 -70 -73 -53 114 -113 -26 71 -57 -71 24 -125 -91 -115 23 -60
0000d0 af bb c0 23 81 1f 8b 4b 5b 0a b1 02 c4 b0 94 ab
       -81 -69 -64 35 -127 31 -117 75 91 10 -79 2 -60 -80 -108 -85
0000e0 65 26 a7 a8 30 15 75 6f 73 ff 75 47 43 1d 61 a4
       101 38 -89 -88 48 21 117 111 115 -1 117 71 67 29 97 -92
0000f0 6b 84 7f df e0 2c 2f bc 74 de 18 65 e0 84 f2 ad
       107 -124 127 -33 -32 44 47 -68 116 -34 24 101 -32 -124 -14 -83

model/basenet.9.1_bn/FusedBatchNormV3;model/basenet.9.0_dconv/depthwise;model/basenet.10.1_bn/FusedBatchNormV3/ReadVariableOp;model/basenet.11.1_bn/FusedBatchNormV3 i1 [1, 3, 3, 128]
000000 1d bf 74 fc 3d 1c 5b ac 63 7f ad ba b6 7f 0f 4d
       29 -65 116 -4 61 28 91 -84 99 127 -83 -70 -74 127 15 77
000010 3b 42 99 07 7f 9d 35 81 6e a2 b3 0c b7 84 67 81
       59 66 -103 7 127 -99 53 -127 110 -94 -77 12 -73 -124 103 -127
000020 5c 04 7f e8 1d 93 79 1c 04 81 2a 68 81 7f 7f 82
       92 4 127 -24 29 -109 121 28 4 -127 42 104 -127 127 127 -126
000030 97 ab 69 b9 16 84 93 8b f4 9a a9 05 5a 39 a9 60
       -105 -85 105 -71 22 -124 -109 -117 -12 -102 -87 5 90 57 -87 96
000040 0c 94 21 f1 28 f8 b8 62 fc 19 a3 d9 6f 09 52 12
       12 -108 33 -15 40 -8 -72 98 -4 25 -93 -39 111 9 82 18
000050 b9 65 99 7f 9d 0e e7 3c 7f a6 87 17 6a 22 1d 5e
       -71 101 -103 127 -99 14 -25 60 127 -90 -121 23 106 34 29 94
000060 28 81 7f f6 29 ec 4b d5 ba 81 71 9d 56 81 a5 96
       40 -127 127 -10 41 -20 75 -43 -70 -127 113 -99 86 -127 -91 -106
000070 5b 9c 04 b4 9f 81 93 81 e4 0b d1 e9 4d 37 c9 8f
       91 -100 4 -76 -97 -127 -109 -127 -28 11 -47 -23 77 55 -55 -113
000080 81 7f 36 3e 16 28 6e 3c 9b 6f b5 7f ed e6 4b bc
       -127 127 54 62 22 40 110 60 -101 111 -75 127 -19 -26 75 -68
000090 5b 81 81 32 cf 32 81 29 30 20 1d 23 7c 4e 5d a7
       91 -127 -127 50 -49 50 -127 41 48 32 29 35 124 78 93 -89
0000a0 72 27 34 81 5d 52 9e 7f 81 49 fc ef 53 e3 af af
       114 39 52 -127 93 82 -98 127 -127 73 -4 -17 83 -29 -81 -81
0000b0 ab 7f 1a db c5 e8 1f 11 30 bc 0e e4 93 7f dc 8b
       -85 127 26 -37 -59 -24 31 17 48 -68 14 -28 -109 127 -36 -117
0000c0 98 19 e1 81 16 e4 34 12 de 04 03 88 d2 b3 41 2f
       -104 25 -31 -127 22 -28 52 18 -34 4 3 -120 -46 -77 65 47
0000d0 90 e9 7b c8 9a 1f 5c d5 fa 17 81 bd bc f0 46 2c
       -112 -23 123 -56 -102 31 92 -43 -6 23 -127 -67 -68 -16 70 44
0000e0 f8 a4 0d 01 55 83 81 23 4c 3c a6 0d f5 4c e2 a2
       -8 -92 13 1 85 -125 -127 35 76 60 -90 13 -11 76 -30 -94
0000f0 81 b6 5f de 38 c4 38 a1 7f 81 00 0c 29 b4 e7 09
       -127 -74 95 -34 56 -60 56 -95 127 -127 0 12 41 -76 -25 9
