models/detection/version-RFB-320_int8_without_postprocessing.tflite (tflite, 408848 bytes, 52 tensors)

model_16/tf.nn.convolution_30/convolution i1 [12, 3, 3, 256]
1 3 0 -1 1 -1 4 3
1 -1 3 16 1 -9 1 1
0 -2 0 -2 0 0 -1 1
0 6 4 -1 5 -4 3 2
2 0 -2 1 0 1 1 1
-2 0 -9 6 3 0 -3 -2
2 5 0 0 -17 0 1 -4
2 -3 0 -1 -1 0 10 1
-1 3 1 -4 1 -6 -6 -2
6 -3 -11 -3 -5 11 6 0
0 1 -3 9 -3 -11 6 -6
-2 4 -1 -8 1 4 -12 2
0 -1 -7 0 1 1 -9 0
-10 -2 4 -18 -1 -2 -1 0
3 -4 -1 -3 2 -7 1 -3
-1 5 2 -5 -2 8 1 5
1 1 -6 -2 3 0 -2 0
0 3 1 -1 1 3 0 1
-1 -1 7 1 2 -2 3 -12
4 1 -3 -2 7 -9 7 1
-1 -2 2 -7 -10 -9 -4 8
-2 0 0 -1 6 3 -4 -1
5 -7 -1 1 -1 2 2 1
-7 3 3 -20 3 1 11 -5
-1 -3 1 -4 1 2 1 -1
-14 4 -3 -5 -3 0 -5 2
4 -3 2 -1 2 2 -1 7
0 -4 4 1 -4 0 5 -5
-7 -2 -1 2 4 2 -4 -4
0 0 -12 -4 1 -1 1 2
0 -2 -3 -1 1 1 0 7
-1 -5 1 3 0 5 1 0
00000000: 0103 00ff 01ff 0403 01ff 0310 01f7 0101
00000010: 00fe 00fe 0000 ff01 0006 04ff 05fc 0302
00000020: 0200 fe01 0001 0101 fe00 f706 0300 fdfe
00000030: 0205 0000 ef00 01fc 02fd 00ff ff00 0a01
00000040: ff03 01fc 01fa fafe 06fd f5fd fb0b 0600
00000050: 0001 fd09 fdf5 06fa fe04 fff8 0104 f402
00000060: 00ff f900 0101 f700 f6fe 04ee fffe ff00
00000070: 03fc fffd 02f9 01fd ff05 02fb fe08 0105
00000080: 0101 fafe 0300 fe00 0003 01ff 0103 0001
00000090: ffff 0701 02fe 03f4 0401 fdfe 07f7 0701
000000a0: fffe 02f9 f6f7 fc08 fe00 00ff 0603 fcff
000000b0: 05f9 ff01 ff02 0201 f903 03ec 0301 0bfb
000000c0: fffd 01fc 0102 01ff f204 fdfb fd00 fb02
000000d0: 04fd 02ff 0202 ff07 00fc 0401 fc00 05fb
000000e0: f9fe ff02 0402 fcfc 0000 f4fc 01ff 0102
000000f0: 00fe fdff 0101 0007 fffb 0103 0005 0100

model_16/tf.nn.convolution_29/convolution i1 [6, 3, 3, 256]
1 -2 -1 7 0 -2 -1 17
1 -3 4 -8 0 -11 -10 -1
0 7 -1 -6 0 -5 -13 -5
9 9 4 -6 -10 0 13 -3
1 1 -4 0 19 0 -6 1
4 0 -4 -2 -3 -12 0 -12
2 -8 -13 13 11 -6 0 5
15 -10 9 0 5 1 -4 4
6 -11 -6 10 -1 -2 1 -6
-7 -5 9 -7 -13 -13 -3 -2
0 -10 -1 -6 -10 6 2 1
2 4 1 19 -2 -6 9 2
-3 1 8 -11 -1 -1 33 0
-6 -4 0 15 -1 -9 0 2
3 22 -2 12 0 -13 5 38
11 -2 0 1 -1 7 0 -11
4 12 -9 15 3 -2 -10 22
0 -5 -5 -7 10 0 0 1
-4 -3 16 0 -9 -7 16 9
-8 1 -6 5 -6 30 -5 -1
-3 -12 1 -1 3 14 -9 0
2 -5 1 -12 4 -2 -8 -1
8 -13 -15 0 7 12 -10 2
-11 21 11 23 -6 0 -8 8
2 -9 -1 10 0 1 6 7
8 -2 -14 2 5 -1 -9 -7
-3 -3 -18 -2 -2 5 0 -11
2 -3 7 12 12 8 -4 11
-11 19 7 -2 20 6 -6 7
4 -1 11 -8 -9 1 2 7
0 1 9 5 -3 -1 0 -19
0 -8 0 -11 -5 -5 -3 1
00000000: 01fe ff07 00fe ff11 01fd 04f8 00f5 f6ff
00000010: 0007 fffa 00fb f3fb 0909 04fa f600 0dfd
00000020: 0101 fc00 1300 fa01 0400 fcfe fdf4 00f4
00000030: 02f8 f30d 0bfa 0005 0ff6 0900 0501 fc04
00000040: 06f5 fa0a fffe 01fa f9fb 09f9 f3f3 fdfe
00000050: 00f6 fffa f606 0201 0204 0113 fefa 0902
00000060: fd01 08f5 ffff 2100 fafc 000f fff7 0002
00000070: 0316 fe0c 00f3 0526 0bfe 0001 ff07 00f5
00000080: 040c f70f 03fe f616 00fb fbf9 0a00 0001
00000090: fcfd 1000 f7f9 1009 f801 fa05 fa1e fbff
000000a0: fdf4 01ff 030e f700 02fb 01f4 04fe f8ff
000000b0: 08f3 f100 070c f602 f515 0b17 fa00 f808
000000c0: 02f7 ff0a 0001 0607 08fe f202 05ff f7f9
000000d0: fdfd eefe fe05 00f5 02fd 070c 0c08 fc0b
000000e0: f513 07fe 1406 fa07 04ff 0bf8 f701 0207
000000f0: 0001 0905 fdff 00ed 00f8 00f5 fbfb fd01

model_16/tf.nn.convolution_28/convolution i1 [256, 1, 1, 64]
29 -15 -41 57 -21 15 53 -65
-5 67 70 -127 28 36 101 -70
-61 -122 -63 104 12 -60 -29 -38
-72 90 17 -122 123 16 9 104
38 7 24 -64 -1 -114 -39 -2
38 64 -55 102 20 92 -76 58
-53 -78 74 13 4 -121 -96 22
-100 -62 43 -19 -119 -123 114 73
-1 1 -3 -4 3 0 -7 -5
-3 11 9 39 8 5 13 2
19 127 17 12 -8 -10 -88 -3
-2 -3 -5 10 -8 0 7 -2
3 1 12 -12 3 -1 5 11
-5 1 -19 16 20 15 -6 -1
30 14 -15 19 0 -9 -2 -5
3 16 12 -27 -8 -1 24 10
13 1 -16 10 -13 -6 2 -16
14 -13 9 122 7 11 5 -2
-8 125 -5 3 -13 -2 75 1
-11 9 15 -18 -3 -6 10 4
-5 13 -13 -1 -3 9 6 -15
-4 2 29 5 -95 -16 -5 12
-14 -22 11 -12 -3 6 8 15
-9 1 4 -127 3 2 -4 -7
-17 12 14 4 -5 18 -3 -12
-3 -1 7 -60 -14 -13 -1 -16
-3 118 27 22 -9 4 -127 -2
6 20 10 2 1 -9 -70 10
13 12 17 6 1 -16 19 11
17 -15 110 -1 103 12 -5 -13
14 16 -13 28 -11 20 -5 8
-3 -2 -4 -43 -13 2 21 -16
00000000: 1df1 d739 eb0f 35bf fb43 4681 1c24 65ba
00000010: c386 c168 0cc4 e3da b85a 1186 7b10 0968
00000020: 2607 18c0 ff8e d9fe 2640 c966 145c b43a
00000030: cbb2 4a0d 0487 a016 9cc2 2bed 8985 7249
00000040: ff01 fdfc 0300 f9fb fd0b 0927 0805 0d02
00000050: 137f 110c f8f6 a8fd fefd fb0a f800 07fe
00000060: 0301 0cf4 03ff 050b fb01 ed10 140f faff
00000070: 1e0e f113 00f7 fefb 0310 0ce5 f8ff 180a
00000080: 0d01 f00a f3fa 02f0 0ef3 097a 070b 05fe
00000090: f87d fb03 f3fe 4b01 f509 0fee fdfa 0a04
000000a0: fb0d f3ff fd09 06f1 fc02 1d05 a1f0 fb0c
000000b0: f2ea 0bf4 fd06 080f f701 0481 0302 fcf9
000000c0: ef0c 0e04 fb12 fdf4 fdff 07c4 f2f3 fff0
000000d0: fd76 1b16 f704 81fe 0614 0a02 01f7 ba0a
000000e0: 0d0c 1106 01f0 130b 11f1 6eff 670c fbf3
000000f0: 0e10 f31c f514 fb08 fdfe fcd5 f302 15f0

model_16/tf.compat.v1.nn.depthwise_conv2d_17/depthwise i1 [1, 3, 3, 64]
-6 -76 61 54 -45 -8 127 -79
41 53 127 58 -81 -25 -115 114
-127 13 14 -98 -41 111 -7 3
127 -81 -124 -82 -127 92 44 -112
-96 -107 -127 112 54 83 48 -76
-17 -127 127 95 44 -21 -92 -50
94 -70 122 -100 -20 39 21 55
-46 -52 -76 -31 -44 0 -103 57
111 -47 -27 -10 -100 -8 -38 5
-40 127 -110 50 -46 -92 -53 -127
-2 46 -34 -127 -127 -88 42 -85
-5 97 -127 -101 -88 127 34 1
81 -28 10 76 35 106 44 53
51 37 87 -35 59 4 -127 -86
41 -22 -24 96 -13 127 -4 -65
-49 -3 93 -15 -115 -83 -127 52
3 -68 -127 8 -99 -2 -64 -8
43 23 -13 80 -30 112 127 -19
-116 58 -57 -60 -40 -13 41 -59
124 22 81 -47 -83 -101 52 4
-119 -123 -66 9 -38 -97 127 -127
57 22 7 -127 53 127 -99 34
-72 -127 83 111 -32 69 127 -127
59 -3 -51 56 5 42 38 -112
-94 -50 -120 127 -56 -94 -26 98
44 18 44 62 -88 56 2 -92
-96 18 -43 -9 76 127 4 -74
14 27 -96 35 -3 -75 107 50
-60 68 -73 36 23 -127 -39 -110
-41 -8 121 22 88 49 -109 94
25 28 49 127 3 -12 -31 -98
-33 -29 -75 4 127 -65 -68 -73
00000000: fab4 3d36 d3f8 7fb1 2935 7f3a afe7 8d72
00000010: 810d 0e9e d76f f903 7faf 84ae 815c 2c90
00000020: a095 8170 3653 30b4 ef81 7f5f 2ceb a4ce
00000030: 5eba 7a9c ec27 1537 d2cc b4e1 d400 9939
00000040: 6fd1 e5f6 9cf8 da05 d87f 9232 d2a4 cb81
00000050: fe2e de81 81a8 2aab fb61 819b a87f 2201
00000060: 51e4 0a4c 236a 2c35 3325 57dd 3b04 81aa
00000070: 29ea e860 f37f fcbf cffd 5df1 8dad 8134
00000080: 03bc 8108 9dfe c0f8 2b17 f350 e270 7fed
00000090: 8c3a c7c4 d8f3 29c5 7c16 51d1 ad9b 3404
000000a0: 8985 be09 da9f 7f81 3916 0781 357f 9d22
000000b0: b881 536f e045 7f81 3bfd cd38 052a 2690
000000c0: a2ce 887f c8a2 e662 2c12 2c3e a838 02a4
000000d0: a012 d5f7 4c7f 04b6 0e1b a023 fdb5 6b32
000000e0: c444 b724 1781 d992 d7f8 7916 5831 935e
000000f0: 191c 317f 03f4 e19e dfe3 b504 7fbf bcb7

model_16/tf.nn.convolution_25/convolution i1 [64, 1, 1, 256]
53 -8 -122 -52 -44 81 3 54
-107 39 -89 -44 103 21 -89 49
34 -115 113 -114 -44 19 75 45
53 84 93 -98 55 58 63 -74
-92 -116 -15 11 12 94 103 -50
-13 46 -62 59 94 -56 26 -52
-79 81 98 34 21 7 -77 -14
68 -31 -123 47 -114 -79 -103 -87
-10 47 113 -123 -61 -52 -97 39
-59 -50 85 -3 9 117 -109 32
116 -124 38 -109 53 -13 -40 -23
74 100 1 -1 38 95 37 114
0 -50 -84 -105 69 -20 -21 -30
91 -64 -14 33 -4 -50 44 -21
70 37 -68 -70 -123 -30 -63 79
108 -49 90 -71 -76 -57 -77 68
123 1 -68 -111 -17 -38 -81 -20
71 -82 -42 -117 87 33 99 115
-106 104 -122 29 99 116 -88 -118
84 77 50 115 -46 123 127 -13
-34 33 10 -34 -122 -76 94 7
78 124 19 100 64 109 -63 86
36 81 93 1 118 13 14 23
-18 53 99 -109 -94 8 89 -75
-26 30 58 -110 -58 104 -26 -104
-112 -61 60 -63 -70 40 113 -65
-64 -119 -5 100 -80 -101 -52 13
53 60 116 45 -122 45 43 -10
-32 58 -17 7 75 49 99 95
41 -14 -45 90 -27 -114 -91 -33
80 15 46 -120 39 5 -122 61
-125 -5 59 101 -94 -88 -108 95
00000000: 35f8 86cc d451 0336 9527 a7d4 6715 a731
00000010: 228d 718e d413 4b2d 3554 5d9e 373a 3fb6
00000020: a48c f10b 0c5e 67ce f32e c23b 5ec8 1acc
00000030: b151 6222 1507 b3f2 44e1 852f 8eb1 99a9
00000040: f62f 7185 c3cc 9f27 c5ce 55fd 0975 9320
00000050: 7484 2693 35f3 d8e9 4a64 01ff 265f 2572
00000060: 00ce ac97 45ec ebe2 5bc0 f221 fcce 2ceb
00000070: 4625 bcba 85e2 c14f 6ccf 5ab9 b4c7 b344
00000080: 7b01 bc91 efda afec 47ae d68b 5721 6373
00000090: 9668 861d 6374 a88a 544d 3273 d27b 7ff3
000000a0: de21 0ade 86b4 5e07 4e7c 1364 406d c156
000000b0: 2451 5d01 760d 0e17 ee35 6393 a208 59b5
000000c0: e61e 3a92 c668 e698 90c3 3cc1 ba28 71bf
000000d0: c089 fb64 b09b cc0d 353c 742d 862d 2bf6
000000e0: e03a ef07 4b31 635f 29f2 d35a e58e a5df
000000f0: 500f 2e88 2705 863d 83fb 3b65 a2a8 945f

model_16/tf.nn.convolution_27/convolution i1 [8, 1, 1, 256]
-29 1 -9 0 6 0 -4 -1
-14 2 -17 -37 1 0 18 25
-10 -1 -4 -1 -25 2 1 5
-1 2 20 0 4 -87 -4 -1
3 0 0 -2 3 0 -1 0
-2 -1 44 -12 -1 -4 -1 3
-1 -2 -32 0 0 43 1 1
1 0 -127 -1 1 -7 1 -1
1 -4 3 -21 1 -7 -1 1
-1 -37 0 6 -17 1 -3 -1
6 1 0 -1 0 -2 2 12
1 0 -66 0 8 4 2 4
6 0 -1 5 -3 20 3 0
46 109 -3 12 0 -3 -12 0
-1 -16 1 38 15 62 -16 0
1 2 3 -1 -12 0 -37 -25
0 -1 -1 0 0 -1 0 -15
3 1 -20 1 1 2 0 -3
-1 0 0 -4 0 3 -1 0
-9 1 -3 0 0 83 0 64
15 -13 -27 3 0 0 0 0
-86 0 -2 -6 2 -1 0 21
-2 65 -15 2 -2 -1 -2 3
87 5 -1 2 3 1 4 -1
1 -32 1 -1 -1 -1 2 1
15 -11 42 1 -2 -1 3 -1
21 1 0 -1 -9 -1 9 1
3 -1 7 0 -2 2 -16 1
11 0 2 -3 -7 -8 1 -1
15 1 0 0 -1 4 3 -1
16 0 -28 -1 -5 37 -17 0
1 -3 8 0 1 0 -3 4
00000000: e301 f700 0600 fcff f202 efdb 0100 1219
00000010: f6ff fcff e702 0105 ff02 1400 04a9 fcff
00000020: 0300 00fe 0300 ff00 feff 2cf4 fffc ff03
00000030: fffe e000 002b 0101 0100 81ff 01f9 01ff
00000040: 01fc 03eb 01f9 ff01 ffdb 0006 ef01 fdff
00000050: 0601 00ff 00fe 020c 0100 be00 0804 0204
00000060: 0600 ff05 fd14 0300 2e6d fd0c 00fd f400
00000070: fff0 0126 0f3e f000 0102 03ff f400 dbe7
00000080: 00ff ff00 00ff 00f1 0301 ec01 0102 00fd
00000090: ff00 00fc 0003 ff00 f701 fd00 0053 0040
000000a0: 0ff3 e503 0000 0000 aa00 fefa 02ff 0015
000000b0: fe41 f102 feff fe03 5705 ff02 0301 04ff
000000c0: 01e0 01ff ffff 0201 0ff5 2a01 feff 03ff
000000d0: 1501 00ff f7ff 0901 03ff 0700 fe02 f001
000000e0: 0b00 02fd f9f8 01ff 0f01 0000 ff04 03ff
000000f0: 1000 e4ff fb25 ef00 01fd 0800 0100 fd04

model_16/tf.compat.v1.nn.depthwise_conv2d_16/depthwise i1 [1, 3, 3, 256]
127 59 12 -22 -10 65 124 4
-39 -74 -19 -8 20 -127 23 -24
121 -127 123 -35 33 -91 -31 -94
127 68 17 48 88 87 105 -121
111 -15 -52 -4 10 127 127 -3
-5 73 25 43 75 57 -113 83
-118 58 -2 3 86 -10 -47 -127
-118 76 -8 -2 -71 43 91 110
94 101 69 -24 57 86 -9 -84
-90 -7 29 44 44 23 -11 127
-58 95 -2 82 81 -76 57 -21
-53 -76 7 67 5 21 92 43
-62 9 -65 42 -30 -69 53 10
6 -14 -10 106 67 -50 -7 -39
-8 24 78 -13 19 7 21 -120
-87 118 116 3 43 62 118 -22
127 3 -13 10 -66 -10 31 37
43 -67 -19 -71 29 -77 96 75
-33 31 -13 -3 60 -97 -90 -3
59 -127 57 -111 -7 -29 35 -11
123 50 2 23 -32 -10 33 -4
106 -36 10 -79 51 62 18 -15
-93 -5 10 10 12 4 66 29
14 101 -127 121 -21 34 -53 2
75 36 -2 -43 -112 -84 -26 19
-28 52 29 -17 -14 88 40 -43
62 84 -108 -5 83 4 22 72
91 68 16 127 -46 117 8 57
-76 -127 115 57 114 -38 -55 -119
67 60 -112 77 -101 -53 54 92
64 -87 24 127 61 31 89 -22
18 -127 41 -17 -22 -68 57 46
00000000: 7f3b 0cea f641 7c04 d9b6 edf8 1481 17e8
00000010: 7981 7bdd 21a5 e1a2 7f44 1130 5857 6987
00000020: 6ff1 ccfc 0a7f 7ffd fb49 192b 4b39 8f53
00000030: 8a3a fe03 56f6 d181 8a4c f8fe b92b 5b6e
00000040: 5e65 45e8 3956 f7ac a6f9 1d2c 2c17 f57f
00000050: c65f fe52 51b4 39eb cbb4 0743 0515 5c2b
00000060: c209 bf2a e2bb 350a 06f2 f66a 43ce f9d9
00000070: f818 4ef3 1307 1588 a976 7403 2b3e 76ea
00000080: 7f03 f30a bef6 1f25 2bbd edb9 1db3 604b
00000090: df1f f3fd 3c9f a6fd 3b81 3991 f9e3 23f5
000000a0: 7b32 0217 e0f6 21fc 6adc 0ab1 333e 12f1
000000b0: a3fb 0a0a 0c04 421d 0e65 8179 eb22 cb02
000000c0: 4b24 fed5 90ac e613 e434 1def f258 28d5
000000d0: 3e54 94fb 5304 1648 5b44 107f d275 0839
000000e0: b481 7339 72da c989 433c 904d 9bcb 365c
000000f0: 40a9 187f 3d1f 59ea 1281 29ef eabc 392e

model_16/tf.nn.convolution_26/convolution i1 [4, 1, 1, 256]
-1 -1 19 -50 57 16 98 0
-3 3 1 1 20 1 9 0
75 4 13 4 8 1 16 -17
30 77 2 22 0 1 -5 23
9 3 8 4 10 17 -6 9
-119 7 1 3 21 1 40 0
-17 0 4 15 13 1 0 0
1 12 1 8 17 22 0 2
-127 -115 3 9 22 0 30 1
41 1 -1 -6 11 6 22 1
6 4 0 -70 1 12 5 2
8 1 7 12 -12 6 3 0
2 23 4 -14 -6 -1 2 -11
13 2 -35 2 1 13 1 17
15 1 11 2 -10 7 0 10
43 16 6 4 3 10 3 4
5 20 3 22 1 5 3 8
3 6 3 14 0 -1 11 3
0 0 -1 8 10 3 0 19
0 -42 0 9 5 -1 -67 1
1 -2 1 -1 34 13 7 4
-4 0 48 -11 6 53 -1 5
0 3 11 1 -1 -107 0 35
1 6 14 2 22 0 -9 12
-1 -5 0 17 -3 6 7 3
-2 0 11 8 2 14 16 6
0 7 0 2 16 1 0 14
1 5 1 -1 0 0 -2 0
-5 0 5 0 4 -26 8 1
7 0 -9 2 -1 2 -3 0
-1 7 7 6 2 0 1 23
14 12 -5 10 4 7 3 -1
00000000: ffff 13ce 3910 6200 fd03 0101 1401 0900
00000010: 4b04 0d04 0801 10ef 1e4d 0216 0001 fb17
00000020: 0903 0804 0a11 fa09 8907 0103 1501 2800
00000030: ef00 040f 0d01 0000 010c 0108 1116 0002
00000040: 818d 0309 1600 1e01 2901 fffa 0b06 1601
00000050: 0604 00ba 010c 0502 0801 070c f406 0300
00000060: 0217 04f2 faff 02f5 0d02 dd02 010d 0111
00000070: 0f01 0b02 f607 000a 2b10 0604 030a 0304
00000080: 0514 0316 0105 0308 0306 030e 00ff 0b03
00000090: 0000 ff08 0a03 0013 00d6 0009 05ff bd01
000000a0: 01fe 01ff 220d 0704 fc00 30f5 0635 ff05
000000b0: 0003 0b01 ff95 0023 0106 0e02 1600 f70c
000000c0: fffb 0011 fd06 0703 fe00 0b08 020e 1006
000000d0: 0007 0002 1001 000e 0105 01ff 0000 fe00
000000e0: fb00 0500 04e6 0801 0700 f702 ff02 fd00
000000f0: ff07 0706 0200 0117 0e0c fb0a 0407 03ff

model_16/tf.compat.v1.nn.depthwise_conv2d_15/depthwise i1 [1, 3, 3, 256]
-121 67 35 37 127 -13 90 127
105 54 87 -91 42 93 28 -55
16 -9 127 115 -37 -123 34 101
93 74 126 -18 -24 61 62 15
-90 60 -25 67 -88 -20 23 99
36 9 -54 -96 -29 92 -74 -44
82 -127 -96 53 57 -87 84 -9
60 -48 36 121 127 -33 76 72
12 0 -63 -110 62 -7 26 -11
63 46 80 34 127 62 55 111
28 -50 63 -46 -122 -92 44 -15
86 1 118 -54 65 -57 60 26
-76 -106 114 0 -23 -73 57 101
23 127 15 8 112 31 -50 -15
39 14 127 78 44 -33 13 -63
51 -90 72 -5 16 112 78 45
-40 76 84 -39 127 -26 34 -92
-30 -127 117 -124 30 93 -47 3
-106 127 104 111 61 -82 -27 79
18 -16 -4 -44 6 117 2 118
120 -5 61 -8 17 65 -20 2
0 3 2 97 35 24 -56 57
124 98 -57 -93 -85 -3 75 36
-74 -91 -33 -127 -127 -25 26 31
-86 11 -127 53 6 -68 23 -43
109 -94 -3 86 -127 83 94 -24
70 39 -56 -22 -3 -125 127 19
59 -127 90 18 127 61 7 -65
-71 -50 68 -63 92 -32 88 -58
-42 -2 54 -112 -51 -34 -19 -98
109 -13 -35 127 69 -127 -84 112
45 47 -41 -127 65 -27 122 -127
00000000: 8743 2325 7ff3 5a7f 6936 57a5 2a5d 1cc9
00000010: 10f7 7f73 db85 2265 5d4a 7eee e83d 3e0f
00000020: a63c e743 a8ec 1763 2409 caa0 e35c b6d4
00000030: 5281 a035 39a9 54f7 3cd0 2479 7fdf 4c48
00000040: 0c00 c192 3ef9 1af5 3f2e 5022 7f3e 376f
00000050: 1cce 3fd2 86a4 2cf1 5601 76ca 41c7 3c1a
00000060: b496 7200 e9b7 3965 177f 0f08 701f cef1
00000070: 270e 7f4e 2cdf 0dc1 33a6 48fb 1070 4e2d
00000080: d84c 54d9 7fe6 22a4 e281 7584 1e5d d103
00000090: 967f 686f 3dae e54f 12f0 fcd4 0675 0276
000000a0: 78fb 3df8 1141 ec02 0003 0261 2318 c839
000000b0: 7c62 c7a3 abfd 4b24 b6a5 df81 81e7 1a1f
000000c0: aa0b 8135 06bc 17d5 6da2 fd56 8153 5ee8
000000d0: 4627 c8ea fd83 7f13 3b81 5a12 7f3d 07bf
000000e0: b9ce 44c1 5ce0 58c6 d6fe 3690 cdde ed9e
000000f0: 6df3 dd7f 4581 ac70 2d2f d781 41e5 7a81

model_16/tf.nn.convolution_24/convolution i1 [256, 1, 1, 256]
43 -5 -7 -79 -2 4 -78 -6
8 -108 -21 -24 -127 -12 -41 25
59 -46 5 -65 -11 -46 23 -30
-34 -81 -50 28 16 -11 -54 -6
-36 -11 -84 46 7 13 62 -61
-30 -47 -8 1 -20 -28 -9 28
29 -44 32 -18 103 -44 45 81
35 -111 -62 3 -21 -18 -78 -11
-48 -35 -36 -44 -23 -58 79 -70
-23 36 41 -82 61 -9 4 -5
-44 -20 -19 52 10 -13 92 72
15 -22 9 15 -46 -13 -62 9
-67 -5 -59 -52 -7 24 2 -53
-36 -31 -30 91 -24 -49 -29 -33
-67 64 -30 -23 22 31 -9 0
5 52 4 -45 -44 21 14 -19
-28 -81 0 23 1 41 -32 3
-25 -17 -16 -64 -35 99 -108 17
-48 32 -38 52 -44 -27 -48 29
-44 44 -61 -23 -38 -6 -3 -21
49 21 21 -32 -13 14 -6 -1
69 -23 -7 105 33 -8 62 6
-21 11 8 10 -28 -12 -48 68
5 29 13 9 -55 -13 7 -42
-10 -15 -90 13 -56 -19 2 44
-45 8 5 -58 -15 -63 -19 -34
-35 12 -21 30 11 -37 -51 -103
-1 -50 -18 12 32 -52 58 -21
0 50 -31 -18 -36 9 75 -2
18 -33 -4 -21 61 -3 -24 18
-6 46 101 37 1 -69 33 -41
-53 31 -11 -19 53 -48 -4 -22
00000000: 2bfb f9b1 fe04 b2fa 0894 ebe8 81f4 d719
00000010: 3bd2 05bf f5d2 17e2 deaf ce1c 10f5 cafa
00000020: dcf5 ac2e 070d 3ec3 e2d1 f801 ece4 f71c
00000030: 1dd4 20ee 67d4 2d51 2391 c203 ebee b2f5
00000040: d0dd dcd4 e9c6 4fba e924 29ae 3df7 04fb
00000050: d4ec ed34 0af3 5c48 0fea 090f d2f3 c209
00000060: bdfb c5cc f918 02cb dce1 e25b e8cf e3df
00000070: bd40 e2e9 161f f700 0534 04d3 d415 0eed
00000080: e4af 0017 0129 e003 e7ef f0c0 dd63 9411
00000090: d020 da34 d4e5 d01d d42c c3e9 dafa fdeb
000000a0: 3115 15e0 f30e faff 45e9 f969 21f8 3e06
000000b0: eb0b 080a e4f4 d044 051d 0d09 c9f3 07d6
000000c0: f6f1 a60d c8ed 022c d308 05c6 f1c1 edde
000000d0: dd0c eb1e 0bdb cd99 ffce ee0c 20cc 3aeb
000000e0: 0032 e1ee dc09 4bfe 12df fceb 3dfd e812
000000f0: fa2e 6525 01bb 21d7 cb1f f5ed 35d0 fcea

model_16/tf.compat.v1.nn.depthwise_conv2d_14/depthwise i1 [1, 3, 3, 256]
1 -53 74 -35 76 -32 -13 -24
-38 -105 -95 80 2 84 -41 -104
-40 31 -89 127 -126 2 127 59
70 -127 -31 -41 -119 60 104 -24
72 -127 -1 127 69 -85 105 -17
-7 -89 -56 116 -114 -101 -80 -114
-8 13 -94 30 120 -90 74 -46
63 -13 21 -62 126 -82 -100 -23
74 -37 44 -7 18 80 51 -80
-57 -67 96 42 103 -36 57 15
-89 -25 -108 -67 89 13 -84 -11
53 11 -62 127 27 -34 -1 24
-62 -10 93 -64 -110 -55 -111 66
-42 0 -72 -17 -30 -94 -46 20
105 23 7 100 -127 89 -53 -53
82 72 88 61 44 103 5 -124
32 19 -37 14 64 38 -74 -74
-71 -33 -123 77 -127 37 20 -88
-92 -41 121 10 36 -11 127 2
-24 -52 -31 -87 19 -72 53 18
106 -58 21 -127 -99 -81 93 -17
-71 -25 -123 44 -33 -33 58 93
90 -26 -35 43 45 -93 127 -55
36 -87 -40 -68 18 127 -41 60
-120 68 21 -8 0 -49 -118 14
-29 73 17 -95 32 65 45 99
-19 127 -17 -48 92 -6 127 113
-96 55 34 -3 45 -116 127 -84
-101 94 13 -88 14 -20 91 127
-127 -109 -46 68 10 48 41 -61
79 118 21 35 -2 -32 118 -60
-127 108 13 97 -53 63 127 -48
00000000: 01cb 4add 4ce0 f3e8 da97 a150 0254 d798
00000010: d81f a77f 8202 7f3b 4681 e1d7 893c 68e8
00000020: 4881 ff7f 45ab 69ef f9a7 c874 8e9b b08e
00000030: f80d a21e 78a6 4ad2 3ff3 15c2 7eae 9ce9
00000040: 4adb 2cf9 1250 33b0 c7bd 602a 67dc 390f
00000050: a7e7 94bd 590d acf5 350b c27f 1bde ff18
00000060: c2f6 5dc0 92c9 9142 d600 b8ef e2a2 d214
00000070: 6917 0764 8159 cbcb 5248 583d 2c67 0584
00000080: 2013 db0e 4026 b6b6 b9df 854d 8125 14a8
00000090: a4d7 790a 24f5 7f02 e8cc e1a9 13b8 3512
000000a0: 6ac6 1581 9daf 5def b9e7 852c dfdf 3a5d
000000b0: 5ae6 dd2b 2da3 7fc9 24a9 d8bc 127f d73c
000000c0: 8844 15f8 00cf 8a0e e349 11a1 2041 2d63
000000d0: ed7f efd0 5cfa 7f71 a037 22fd 2d8c 7fac
000000e0: 9b5e 0da8 0eec 5b7f 8193 d244 0a30 29c3
000000f0: 4f76 1523 fee0 76c4 816c 0d61 cb3f 7fd0

model_16/tf.nn.convolution_23/convolution i1 [256, 1, 1, 128]
-5 31 -29 19 -23 -2 3 -44
-55 -50 -82 -58 -49 37 -46 -41
24 -22 -12 -4 -17 -59 4 -89
-45 -6 -8 12 -122 -81 -86 -2
-7 -8 -51 -61 -35 -24 56 -39
-95 24 -13 19 26 62 -34 -2
73 -16 -39 12 -64 17 118 -30
-2 -24 25 -5 39 -4 6 -16
-80 24 3 -42 -40 11 -86 -8
94 2 -20 -2 -60 -28 -47 92
114 35 34 -10 1 -52 -4 34
-35 -29 -82 -12 10 -110 30 -44
36 15 36 -2 -54 -20 -33 -5
116 -53 -40 -52 -112 -87 30 -1
-51 -3 -22 127 27 9 75 -41
-115 -13 1 -17 -38 -7 -39 15
-80 63 -26 -22 -17 -32 -18 -40
-40 -14 -14 -127 27 -34 -83 -92
-32 -38 -98 24 21 44 -29 -19
95 8 -10 -14 -57 -86 -35 -14
69 -23 3 -60 79 -24 -1 77
7 -6 -11 51 -37 102 -19 24
21 -5 -37 13 -41 0 119 -10
120 -27 36 -14 34 -35 -40 20
-73 -74 -30 -49 -13 -32 25 17
-8 31 -36 21 9 4 -59 -53
19 -51 6 31 -43 -52 9 -39
14 -9 -14 30 -63 -41 -42 55
-43 8 -56 6 -31 -39 6 44
-18 58 -26 16 -15 -44 -87 22
25 -29 -2 -5 52 102 41 6
54 65 -28 0 -7 34 -2 -48
00000000: fb1f e313 e9fe 03d4 c9ce aec6 cf25 d2d7
00000010: 18ea f4fc efc5 04a7 d3fa f80c 86af aafe
00000020: f9f8 cdc3 dde8 38d9 a118 f313 1a3e defe
00000030: 49f0 d90c c011 76e2 fee8 19fb 27fc 06f0
00000040: b018 03d6 d80b aaf8 5e02 ecfe c4e4 d15c
00000050: 7223 22f6 01cc fc22 dde3 aef4 0a92 1ed4
00000060: 240f 24fe caec dffb 74cb d8cc 90a9 1eff
00000070: cdfd ea7f 1b09 4bd7 8df3 01ef daf9 d90f
00000080: b03f e6ea efe0 eed8 d8f2 f281 1bde ada4
00000090: e0da 9e18 152c e3ed 5f08 f6f2 c7aa ddf2
000000a0: 45e9 03c4 4fe8 ff4d 07fa f533 db66 ed18
000000b0: 15fb db0d d700 77f6 78e5 24f2 22dd d814
000000c0: b7b6 e2cf f3e0 1911 f81f dc15 0904 c5cb
000000d0: 13cd 061f d5cc 09d9 0ef7 f21e c1d7 d637
000000e0: d508 c806 e1d9 062c ee3a e610 f1d4 a916
000000f0: 19e3 fefb 3466 2906 3641 e400 f922 fed0

model_16/tf.compat.v1.nn.depthwise_conv2d_13/depthwise i1 [1, 3, 3, 128]
-35 -127 127 -127 43 -41 127 41
19 -18 1 13 -41 -25 -37 -127
127 -29 74 -4 55 -6 19 -13
-10 45 -23 -58 -55 -36 75 -31
-64 -7 -47 127 -104 -14 6 -55
111 127 -70 59 -21 0 -17 61
-25 -31 -5 -122 49 -51 46 127
112 34 -42 -56 25 -106 -77 36
-40 -43 -66 -100 95 68 -17 -11
46 -37 112 5 74 -16 127 26
127 -11 -72 -95 -13 -73 92 17
-80 -92 6 -38 13 86 -21 100
-31 -41 37 -31 -18 99 -13 127
-38 51 119 26 -70 -88 75 31
-46 -29 44 -87 55 88 -43 43
-16 26 83 -127 103 127 -92 109
-40 -68 64 -100 107 49 110 59
46 -58 -37 46 -29 -51 92 -32
53 -127 74 7 50 37 -62 22
11 62 10 -58 -37 -63 127 -91
104 -20 -64 126 -97 -16 -39 6
-8 19 -16 35 -7 124 -37 44
-49 21 -119 -127 55 -93 78 -61
-36 80 77 22 -44 127 -82 -11
58 -94 -51 -127 10 -69 7 99
65 -127 -69 7 76 -86 49 -66
60 32 -16 -27 -17 15 -77 115
-39 127 127 -81 -6 -5 51 99
-72 -105 -119 127 -4 -28 8 -46
56 25 -95 127 -9 -31 66 76
-69 -63 57 16 127 24 -46 127
20 -63 -61 45 66 115 -112 103
00000000: dd81 7f81 2bd7 7f29 13ee 010d d7e7 db81
00000010: 7fe3 4afc 37fa 13f3 f62d e9c6 c9dc 4be1
00000020: c0f9 d17f 98f2 06c9 6f7f ba3b eb00 ef3d
00000030: e7e1 fb86 31cd 2e7f 7022 d6c8 1996 b324
00000040: d8d5 be9c 5f44 eff5 2edb 7005 4af0 7f1a
00000050: 7ff5 b8a1 f3b7 5c11 b0a4 06da 0d56 eb64
00000060: e1d7 25e1 ee63 f37f da33 771a baa8 4b1f
00000070: d2e3 2ca9 3758 d52b f01a 5381 677f a46d
00000080: d8bc 409c 6b31 6e3b 2ec6 db2e e3cd 5ce0
00000090: 3581 4a07 3225 c216 0b3e 0ac6 dbc1 7fa5
000000a0: 68ec c07e 9ff0 d906 f813 f023 f97c db2c
000000b0: cf15 8981 37a3 4ec3 dc50 4d16 d47f aef5
000000c0: 3aa2 cd81 0abb 0763 4181 bb07 4caa 31be
000000d0: 3c20 f0e5 ef0f b373 d97f 7faf fafb 3363
000000e0: b897 897f fce4 08d2 3819 a17f f7e1 424c
000000f0: bbc1 3910 7f18 d27f 14c1 c32d 4273 9067

model_16/tf.nn.convolution_22/convolution i1 [8, 1, 1, 128]
90 0 -1 17 -100 -2 -95 -50
3 65 -16 -2 -9 -6 -3 1
-1 5 96 -2 41 5 3 -1
-1 -10 0 1 -3 1 -1 29
1 -10 1 0 2 4 0 -2
0 0 -4 -5 0 0 -127 6
19 5 67 85 3 -17 -4 -13
-1 1 -24 91 0 -1 18 -3
28 -12 0 -47 -2 5 1 1
0 6 -24 8 1 -4 0 0
31 21 14 -17 1 3 0 -1
-41 3 -1 6 2 1 -80 5
-2 0 -1 -7 1 -32 -6 0
1 -15 3 0 7 -1 0 -4
0 -6 0 -7 2 2 1 1
-1 -1 -41 116 3 0 -1 0
-9 5 0 7 -4 -7 5 -51
-59 46 -13 2 -61 -7 -2 0
0 -3 33 3 -40 -2 3 0
-14 -61 1 2 1 -1 -3 4
-1 -4 0 -1 -1 78 1 1
4 2 -8 27 1 0 -1 -5
-2 85 -48 6 -2 90 3 8
0 1 -5 -68 1 -1 80 1
-49 4 -2 78 25 4 -1 5
0 -8 -17 9 0 -15 1 2
-9 15 -1 28 0 -1 0 1
23 0 -1 -3 1 0 3 -2
-3 -7 -1 -13 0 -127 1 1
2 14 3 -1 1 1 -1 27
0 -6 2 -20 -3 2 0 0
-1 0 0 6 11 0 -2 -1
00000000: 5a00 ff11 9cfe a1ce 0341 f0fe f7fa fd01
00000010: ff05 60fe 2905 03ff fff6 0001 fd01 ff1d
00000020: 01f6 0100 0204 00fe 0000 fcfb 0000 8106
00000030: 1305 4355 03ef fcf3 ff01 e85b 00ff 12fd
00000040: 1cf4 00d1 fe05 0101 0006 e808 01fc 0000
00000050: 1f15 0eef 0103 00ff d703 ff06 0201 b005
00000060: fe00 fff9 01e0 fa00 01f1 0300 07ff 00fc
00000070: 00fa 00f9 0202 0101 ffff d774 0300 ff00
00000080: f705 0007 fcf9 05cd c52e f302 c3f9 fe00
00000090: 00fd 2103 d8fe 0300 f2c3 0102 01ff fd04
000000a0: fffc 00ff ff4e 0101 0402 f81b 0100 fffb
000000b0: fe55 d006 fe5a 0308 0001 fbbc 01ff 5001
000000c0: cf04 fe4e 1904 ff05 00f8 ef09 00f1 0102
000000d0: f70f ff1c 00ff 0001 1700 fffd 0100 03fe
000000e0: fdf9 fff3 0081 0101 020e 03ff 0101 ff1b
000000f0: 00fa 02ec fd02 0000 ff00 0006 0b00 feff

model_16/tf.compat.v1.nn.depthwise_conv2d_12/depthwise i1 [1, 3, 3, 128]
0 68 -71 -33 48 25 -16 -13
68 -2 45 -31 -24 121 6 -103
-127 4 0 75 15 53 -72 -120
58 78 -43 -61 -44 -8 36 15
15 -39 46 -12 -77 3 -119 -34
-45 -63 75 65 -66 19 5 -40
57 -5 29 -26 75 5 3 55
-76 -59 72 19 -16 66 -24 4
-5 0 27 -10 -20 -127 -65 -34
53 29 92 -77 -36 27 -74 -127
16 26 -2 18 109 -83 -127 88
55 -33 -84 39 -50 27 68 19
96 -19 104 98 -61 8 59 41
25 -7 -102 -23 -7 -4 72 -3
-25 -9 24 77 -102 52 -90 -35
87 62 10 -17 51 -127 -72 -78
26 68 127 -18 4 -39 -4 127
127 32 64 127 106 127 127 78
55 127 63 -108 55 127 -127 -22
127 127 33 -47 26 39 -103 56
69 -43 -50 -77 -34 34 0 -2
-15 15 50 127 -117 -59 37 -6
6 -11 76 56 29 -7 -49 104
-73 -93 94 -36 30 61 -70 -62
127 69 -39 -21 -25 94 -74 49
69 11 98 14 127 36 -74 -84
63 58 127 20 -116 -78 -77 -37
51 127 105 127 47 103 91 -22
-36 127 93 112 -95 36 62 -49
-10 23 -127 -127 88 -84 -110 -17
58 -28 3 127 104 79 -27 -127
-113 86 14 59 98 72 -93 31
00000000: 0044 b9df 3019 f0f3 44fe 2de1 e879 0699
00000010: 8104 004b 0f35 b888 3a4e d5c3 d4f8 240f
00000020: 0fd9 2ef4 b303 89de d3c1 4b41 be13 05d8
00000030: 39fb 1de6 4b05 0337 b4c5 4813 f042 e804
00000040: fb00 1bf6 ec81 bfde 351d 5cb3 dc1b b681
00000050: 101a fe12 6dad 8158 37df ac27 ce1b 4413
00000060: 60ed 6862 c308 3b29 19f9 9ae9 f9fc 48fd
00000070: e7f7 184d 9a34 a6dd 573e 0aef 3381 b8b2
00000080: 1a44 7fee 04d9 fc7f 7f20 407f 6a7f 7f4e
00000090: 377f 3f94 377f 81ea 7f7f 21d1 1a27 9938
000000a0: 45d5 ceb3 de22 00fe f10f 327f 8bc5 25fa
000000b0: 06f5 4c38 1df9 cf68 b7a3 5edc 1e3d bac2
000000c0: 7f45 d9eb e75e b631 450b 620e 7f24 b6ac
000000d0: 3f3a 7f14 8cb2 b3db 337f 697f 2f67 5bea
000000e0: dc7f 5d70 a124 3ecf f617 8181 58ac 92ef
000000f0: 3ae4 037f 684f e581 8f56 0e3b 6248 a31f

model_16/tf.nn.convolution_21/convolution i1 [4, 1, 1, 128]
17 -15 1 -1 -9 22 -15 -3
0 -2 5 -53 1 -21 -1 1
2 -53 -8 -65 15 1 0 13
12 11 74 -29 37 12 14 -2
66 0 3 -6 1 -7 12 3
9 21 4 1 19 -7 -16 -1
1 -3 -5 5 11 10 81 -4
1 -127 3 -4 10 3 -9 30
-12 3 -5 7 -1 -112 31 7
10 2 8 23 0 4 17 1
-5 -1 12 1 77 75 3 5
3 -2 0 4 26 2 11 14
83 17 11 0 1 1 11 0
16 1 -1 1 -1 62 0 -121
0 1 1 0 2 -1 41 5
1 -1 -27 6 -3 2 4 -100
-17 15 0 1 10 -22 14 2
1 4 -5 53 -1 19 1 1
-2 51 11 63 -16 0 -1 -14
-12 -12 -75 27 -39 -12 -14 0
-66 -1 -4 7 -1 9 -13 -2
-8 -21 -5 -1 -19 9 17 -2
-1 3 5 -3 -9 -8 -79 1
-3 127 -5 5 -11 -3 9 -32
12 -3 5 -7 0 111 -31 -6
-11 -1 -9 -21 -1 -5 -15 1
6 -2 -13 0 -75 -74 -1 -5
-3 3 0 -6 -26 0 -11 -11
-83 -18 -10 0 0 0 -13 0
-17 0 -1 0 -1 -60 0 119
-1 2 -1 0 -1 0 -42 -5
-3 1 26 -6 2 -1 -3 100
00000000: 11f1 01ff f716 f1fd 00fe 05cb 01eb ff01
00000010: 02cb f8bf 0f01 000d 0c0b 4ae3 250c 0efe
00000020: 4200 03fa 01f9 0c03 0915 0401 13f9 f0ff
00000030: 01fd fb05 0b0a 51fc 0181 03fc 0a03 f71e
00000040: f403 fb07 ff90 1f07 0a02 0817 0004 1101
00000050: fbff 0c01 4d4b 0305 03fe 0004 1a02 0b0e
00000060: 5311 0b00 0101 0b00 1001 ff01 ff3e 0087
00000070: 0001 0100 02ff 2905 01ff e506 fd02 049c
00000080: ef0f 0001 0aea 0e02 0104 fb35 ff13 0101
00000090: fe33 0b3f f000 fff2 f4f4 b51b d9f4 f200
000000a0: beff fc07 ff09 f3fe f8eb fbff ed09 11fe
000000b0: ff03 05fd f7f8 b101 fd7f fb05 f5fd 09e0
000000c0: 0cfd 05f9 006f e1fa f5ff f7eb fffb f101
000000d0: 06fe f300 b5b6 fffb fd03 00fa e600 f5f5
000000e0: adee f600 0000 f300 ef00 ff00 ffc4 0077
000000f0: ff02 ff00 ff00 d6fb fd01 1afa 02ff fd64

model_16/tf.compat.v1.nn.depthwise_conv2d_11/depthwise i1 [1, 3, 3, 128]
-25 11 -91 -78 16 -13 -1 47
-123 101 -94 -7 60 -127 -58 -7
127 87 127 -2 -5 119 -37 19
88 127 -14 -40 127 -114 -39 -116
79 -71 95 -44 44 127 63 116
127 127 53 -40 121 -9 -4 58
-28 4 -17 127 57 -75 -40 -81
-23 -16 71 -82 90 35 94 -63
68 -5 24 127 -85 8 81 -60
89 -46 -124 -118 127 -127 79 52
14 -127 -119 3 93 91 69 97
-93 -65 40 -78 127 26 3 40
54 -75 97 69 69 36 56 43
72 -127 -127 21 24 60 45 -22
-44 -83 39 26 88 13 16 -27
48 -82 14 -105 127 -65 85 -9
-47 -23 0 -1 -12 -127 53 -40
99 127 50 92 -69 116 1 36
22 127 -48 100 91 127 -94 30
21 72 -5 26 110 -60 13 18
83 -22 78 65 74 -26 127 -30
42 81 -60 83 79 -30 2 -127
77 127 -76 71 14 36 63 82
-127 -9 28 52 89 18 93 -30
90 -21 50 22 22 90 122 -109
116 -71 110 -125 -114 35 127 -127
-32 109 -125 63 68 -92 -79 58
-101 13 -104 103 112 -91 64 -7
127 -5 38 8 -62 27 -53 -21
36 58 -104 67 87 127 -76 -5
-85 82 -22 53 -104 -127 -41 127
45 57 -15 -25 43 -64 40 114
00000000: e70b a5b2 10f3 ff2f 8565 a2f9 3c81 c6f9
00000010: 7f57 7ffe fb77 db13 587f f2d8 7f8e d98c
00000020: 4fb9 5fd4 2c7f 3f74 7f7f 35d8 79f7 fc3a
00000030: e404 ef7f 39b5 d8af e9f0 47ae 5a23 5ec1
00000040: 44fb 187f ab08 51c4 59d2 848a 7f81 4f34
00000050: 0e81 8903 5d5b 4561 a3bf 28b2 7f1a 0328
00000060: 36b5 6145 4524 382b 4881 8115 183c 2dea
00000070: d4ad 271a 580d 10e5 30ae 0e97 7fbf 55f7
00000080: d1e9 00ff f481 35d8 637f 325c bb74 0124
00000090: 167f d064 5b7f a21e 1548 fb1a 6ec4 0d12
000000a0: 53ea 4e41 4ae6 7fe2 2a51 c453 4fe2 0281
000000b0: 4d7f b447 0e24 3f52 81f7 1c34 5912 5de2
000000c0: 5aeb 3216 165a 7a93 74b9 6e83 8e23 7f81
000000d0: e06d 833f 44a4 b13a 9b0d 9867 70a5 40f9
000000e0: 7ffb 2608 c21b cbeb 243a 9843 577f b4fb
000000f0: ab52 ea35 9881 d77f 2d39 f1e7 2bc0 2872

model_16/tf.nn.convolution_20/convolution i1 [128, 1, 1, 128]
-26 -52 -73 68 48 6 -36 5
-13 26 38 -1 7 19 9 -26
34 -2 -1 -67 28 -56 -17 24
-3 -52 -2 -17 -4 10 7 6
-52 6 13 12 -11 -29 -24 -22
14 12 -40 -6 47 5 -23 0
-87 21 21 18 -13 -51 -40 -8
29 -40 -10 17 -13 -56 7 -20
-57 -102 -28 -1 -53 -41 17 -16
-4 13 -28 -28 -23 -51 4 49
-45 8 65 -22 -18 51 21 -47
-36 -24 -127 54 2 52 -39 -10
14 -120 35 -20 33 -5 -76 -4
19 30 0 28 -22 -52 20 -87
-5 27 -39 -31 -13 -16 -41 28
22 -99 -81 20 0 35 43 17
-22 96 -65 -23 -78 44 -11 -10
-74 -46 -38 29 -88 36 -32 -64
2 -12 -34 27 -23 -8 -4 -85
-44 13 -44 58 67 0 -29 5
-127 -8 -18 38 -45 13 14 36
28 -8 23 14 17 -48 29 0
14 35 7 36 -17 64 50 70
39 9 9 57 -67 -32 47 -103
-42 21 0 16 -28 -24 15 27
10 -59 34 -22 -14 30 40 -52
36 -21 -11 20 -22 28 34 -16
-8 -60 6 37 52 -25 -33 18
34 -14 -34 17 17 8 15 -29
2 6 9 32 -23 35 -41 -26
3 11 20 -58 -26 104 -44 -72
34 53 43 -41 -50 12 12 7
00000000: e6cc b744 3006 dc05 f31a 26ff 0713 09e6
00000010: 22fe ffbd 1cc8 ef18 fdcc feef fc0a 0706
00000020: cc06 0d0c f5e3 e8ea 0e0c d8fa 2f05 e900
00000030: a915 1512 f3cd d8f8 1dd8 f611 f3c8 07ec
00000040: c79a e4ff cbd7 11f0 fc0d e4e4 e9cd 0431
00000050: d308 41ea ee33 15d1 dce8 8136 0234 d9f6
00000060: 0e88 23ec 21fb b4fc 131e 001c eacc 14a9
00000070: fb1b d9e1 f3f0 d71c 169d af14 0023 2b11
00000080: ea60 bfe9 b22c f5f6 b6d2 da1d a824 e0c0
00000090: 02f4 de1b e9f8 fcab d40d d43a 4300 e305
000000a0: 81f8 ee26 d30d 0e24 1cf8 170e 11d0 1d00
000000b0: 0e23 0724 ef40 3246 2709 0939 bde0 2f99
000000c0: d615 0010 e4e8 0f1b 0ac5 22ea f21e 28cc
000000d0: 24eb f514 ea1c 22f0 f8c4 0625 34e7 df12
000000e0: 22f2 de11 1108 0fe3 0206 0920 e923 d7e6
000000f0: 030b 14c6 e668 d4b8 2235 2bd7 ce0c 0c07

model_16/tf.compat.v1.nn.depthwise_conv2d_10/depthwise i1 [1, 3, 3, 128]
-80 10 -2 -22 15 -33 119 47
-21 -15 -26 -86 -77 -4 74 -15
-64 -7 -64 127 74 -80 -11 -26
53 127 3 -29 123 -24 25 38
45 92 30 40 90 21 14 40
26 19 -104 -90 -3 -5 -65 -31
-64 -90 127 -82 -69 41 -54 99
-5 -56 -49 -99 127 -89 -110 42
18 -114 -108 -27 -104 13 -112 46
9 97 11 127 -21 28 -68 57
19 71 93 78 16 79 96 12
-71 -15 -23 44 51 -34 1 25
109 48 23 22 -36 40 73 109
78 29 -4 127 -28 -32 -95 30
-31 31 -77 -127 -30 38 59 25
11 -62 -86 -108 -98 17 -52 -73
-15 -23 -14 -14 -27 -26 127 127
-27 59 0 6 -81 -53 50 21
-55 23 56 -29 127 -95 -15 -19
127 24 -8 -124 63 -49 38 79
34 127 46 -73 48 -34 127 -38
-20 6 49 -83 46 -8 -127 47
-91 -86 67 -84 -67 127 -29 -44
17 -127 -53 -127 65 -92 -92 55
-18 116 -120 -75 -96 127 55 127
33 127 -127 -28 -16 127 32 38
127 105 -3 127 127 -89 127 74
-66 -77 21 -49 127 -82 -20 -51
90 -82 127 56 38 -17 -112 127
108 127 -59 88 -62 80 -15 -54
53 -16 -39 -69 -89 24 48 -35
86 -48 -127 -127 -88 106 54 45
00000000: b00a feea 0fdf 772f ebf1 e6aa b3fc 4af1
00000010: c0f9 c07f 4ab0 f5e6 357f 03e3 7be8 1926
00000020: 2d5c 1e28 5a15 0e28 1a13 98a6 fdfb bfe1
00000030: c0a6 7fae bb29 ca63 fbc8 cf9d 7fa7 922a
00000040: 128e 94e5 980d 902e 0961 0b7f eb1c bc39
00000050: 1347 5d4e 104f 600c b9f1 e92c 33de 0119
00000060: 6d30 1716 dc28 496d 4e1d fc7f e4e0 a11e
00000070: e11f b381 e226 3b19 0bc2 aa94 9e11 ccb7
00000080: f1e9 f2f2 e5e6 7f7f e53b 0006 afcb 3215
00000090: c917 38e3 7fa1 f1ed 7f18 f884 3fcf 264f
000000a0: 227f 2eb7 30de 7fda ec06 31ad 2ef8 812f
000000b0: a5aa 43ac bd7f e3d4 1181 cb81 41a4 a437
000000c0: ee74 88b5 a07f 377f 217f 81e4 f07f 2026
000000d0: 7f69 fd7f 7fa7 7f4a beb3 15cf 7fae eccd
000000e0: 5aae 7f38 26ef 907f 6c7f c558 c250 f1ca
000000f0: 35f0 d9bb a718 30dd 56d0 8181 a86a 362d

model_16/tf.nn.convolution_19/convolution i1 [128, 1, 1, 128]
-25 -48 37 78 44 60 21 -24
9 -4 36 -78 4 -24 7 -2
61 50 27 59 -30 -35 -59 -40
24 52 22 30 -13 55 25 47
28 -11 -41 47 -14 30 84 34
71 -21 3 -41 -7 3 -50 -1
-57 -8 -11 -24 49 -9 -61 -54
-14 54 20 -3 -79 36 62 96
-93 -26 8 39 37 -4 9 -59
-72 127 -30 93 26 -57 38 19
-4 -90 -56 63 -27 -23 36 12
-18 -48 15 72 -19 -2 -18 66
-126 28 38 29 -42 34 -1 -50
-60 5 -6 -52 16 -18 47 29
53 -43 5 10 -9 -50 44 29
-63 -36 61 -53 49 -24 -52 98
24 -6 -40 -8 67 3 -33 -76
-1 38 2 -23 -45 -18 -11 54
-11 17 35 -33 -24 8 7 -4
-44 -64 9 -45 54 2 47 -60
-46 31 7 -14 -28 -26 -114 -43
59 -32 -16 -8 -5 39 -71 -13
126 87 -28 -33 -48 -17 -51 43
15 127 -57 -59 72 7 -55 -14
-42 97 -15 19 -32 37 44 -51
-44 -15 -24 74 -47 40 -123 25
14 35 27 59 -48 -74 -45 -37
-13 -35 -11 -3 12 7 -38 10
11 -103 -13 37 66 6 10 -10
-60 5 -15 -26 16 8 -1 -77
42 12 -4 -10 -25 -40 73 32
-52 14 9 -83 22 -96 -39 -16
00000000: e7d0 254e 2c3c 15e8 09fc 24b2 04e8 07fe
00000010: 3d32 1b3b e2dd c5d8 1834 161e f337 192f
00000020: 1cf5 d72f f21e 5422 47eb 03d7 f903 ceff
00000030: c7f8 f5e8 31f7 c3ca f236 14fd b124 3e60
00000040: a3e6 0827 25fc 09c5 b87f e25d 1ac7 2613
00000050: fca6 c83f e5e9 240c eed0 0f48 edfe ee42
00000060: 821c 261d d622 ffce c405 facc 10ee 2f1d
00000070: 35d5 050a f7ce 2c1d c1dc 3dcb 31e8 cc62
00000080: 18fa d8f8 4303 dfb4 ff26 02e9 d3ee f536
00000090: f511 23df e808 07fc d4c0 09d3 3602 2fc4
000000a0: d21f 07f2 e4e6 8ed5 3be0 f0f8 fb27 b9f3
000000b0: 7e57 e4df d0ef cd2b 0f7f c7c5 4807 c9f2
000000c0: d661 f113 e025 2ccd d4f1 e84a d128 8519
000000d0: 0e23 1b3b d0b6 d3db f3dd f5fd 0c07 da0a
000000e0: 0b99 f325 4206 0af6 c405 f1e6 1008 ffb3
000000f0: 2a0c fcf6 e7d8 4920 cc0e 09ad 16a0 d9f0

model_16/tf.compat.v1.nn.depthwise_conv2d_9/depthwise i1 [1, 3, 3, 128]
-92 -66 -28 84 -2 -6 108 127
4 -108 -121 -50 127 27 -49 55
-73 -114 76 -63 19 -12 -30 -125
-49 -39 -11 -18 85 -2 105 -68
127 37 113 -60 22 -32 65 127
43 -106 -42 -45 -5 -43 78 -30
-45 -26 11 15 22 65 97 -7
-101 -49 -26 -11 -32 40 -67 22
86 -24 54 100 -36 30 -8 18
-63 127 -40 49 -45 -18 -92 -55
99 -56 89 -98 9 -2 22 -95
15 10 -7 24 127 14 -41 -15
127 -78 -69 -127 8 105 127 83
-15 -26 -65 -12 -69 -5 115 116
-76 -16 -34 -53 -44 71 69 34
-24 -21 41 -12 31 -39 -57 -84
100 13 -71 -9 -25 -6 127 27
-127 -94 -101 -54 -27 80 60 36
4 127 33 -15 45 -44 -116 -41
-41 70 -58 85 127 -9 -115 -84
-1 -26 -44 -34 103 7 29 90
93 -89 79 127 -73 78 42 -49
8 -16 34 19 107 124 76 86
-28 127 -25 -27 127 -77 -39 127
44 47 -25 -74 -98 36 27 -105
33 13 -85 54 47 -74 7 -47
-127 -24 -6 8 -4 -127 56 48
-9 -103 -69 -96 -14 -42 -30 -77
2 34 -10 -77 -17 127 1 127
-73 -93 -127 12 -14 80 -100 105
-25 -18 -48 -32 122 -104 -51 127
-47 8 14 -21 0 -17 -24 -10
00000000: a4be e454 fefa 6c7f 0494 87ce 7f1b cf37
00000010: b78e 4cc1 13f4 e283 cfd9 f5ee 55fe 69bc
00000020: 7f25 71c4 16e0 417f 2b96 d6d3 fbd5 4ee2
00000030: d3e6 0b0f 1641 61f9 9bcf e6f5 e028 bd16
00000040: 56e8 3664 dc1e f812 c17f d831 d3ee a4c9
00000050: 63c8 599e 09fe 16a1 0f0a f918 7f0e d7f1
00000060: 7fb2 bb81 0869 7f53 f1e6 bff4 bbfb 7374
00000070: b4f0 decb d447 4522 e8eb 29f4 1fd9 c7ac
00000080: 640d b9f7 e7fa 7f1b 81a2 9bca e550 3c24
00000090: 047f 21f1 2dd4 8cd7 d746 c655 7ff7 8dac
000000a0: ffe6 d4de 6707 1d5a 5da7 4f7f b74e 2acf
000000b0: 08f0 2213 6b7c 4c56 e47f e7e5 7fb3 d97f
000000c0: 2c2f e7b6 9e24 1b97 210d ab36 2fb6 07d1
000000d0: 81e8 fa08 fc81 3830 f799 bba0 f2d6 e2b3
000000e0: 0222 f6b3 ef7f 017f b7a3 810c f250 9c69
000000f0: e7ee d0e0 7a98 cd7f d108 0eeb 00ef e8f6

model_16/tf.nn.convolution_18/convolution i1 [128, 1, 1, 64]
19 32 48 -1 16 54 14 30
40 12 50 19 -48 -10 -25 6
14 -45 53 33 -10 20 48 -9
-31 1 127 28 -74 -14 25 -21
31 -40 -13 -1 -39 20 57 35
-22 54 15 23 4 68 -44 66
20 67 11 10 78 -10 -12 -96
54 41 -6 -7 -11 10 29 26
-30 -34 53 -1 81 -15 2 -60
16 -69 57 -32 -6 -45 34 -43
27 65 94 64 47 -17 -15 -5
64 -112 -13 -30 -65 -28 6 53
-33 25 20 39 61 99 -31 -2
-20 74 63 -8 -94 -8 -127 -17
5 31 -31 -8 35 -12 -53 -52
35 -25 2 -14 97 19 57 48
-75 -4 -24 50 23 61 -40 81
-77 112 83 -74 67 122 -23 21
31 24 31 13 -71 -3 -15 -9
43 91 127 -65 -27 6 11 52
-24 -28 56 48 -71 108 13 4
55 14 -23 21 -42 -41 66 7
61 34 -36 -63 -56 90 -76 23
24 6 -60 114 -20 -51 12 71
26 -2 -21 30 113 45 3 37
-6 14 0 44 -2 -5 -14 42
-3 2 43 51 -14 0 -48 73
92 52 -67 -19 127 46 16 -8
81 23 -15 48 14 -3 10 -5
10 -7 34 23 -27 -52 17 81
37 -37 12 8 59 13 11 79
24 -31 13 -51 -16 96 -19 50
00000000: 1320 30ff 1036 0e1e 280c 3213 d0f6 e706
00000010: 0ed3 3521 f614 30f7 e101 7f1c b6f2 19eb
00000020: 1fd8 f3ff d914 3923 ea36 0f17 0444 d442
00000030: 1443 0b0a 4ef6 f4a0 3629 faf9 f50a 1d1a
00000040: e2de 35ff 51f1 02c4 10bb 39e0 fad3 22d5
00000050: 1b41 5e40 2fef f1fb 4090 f3e2 bfe4 0635
00000060: df19 1427 3d63 e1fe ec4a 3ff8 a2f8 81ef
00000070: 051f e1f8 23f4 cbcc 23e7 02f2 6113 3930
00000080: b5fc e832 173d d851 b370 53b6 437a e915
00000090: 1f18 1f0d b9fd f1f7 2b5b 7fbf e506 0b34
000000a0: e8e4 3830 b96c 0d04 370e e915 d6d7 4207
000000b0: 3d22 dcc1 c85a b417 1806 c472 eccd 0c47
000000c0: 1afe eb1e 712d 0325 fa0e 002c fefb f22a
000000d0: fd02 2b33 f200 d049 5c34 bded 7f2e 10f8
000000e0: 5117 f130 0efd 0afb 0af9 2217 e5cc 1151
000000f0: 25db 0c08 3b0d 0b4f 18e1 0dcd f060 ed32

model_16/tf.compat.v1.nn.depthwise_conv2d_8/depthwise i1 [1, 3, 3, 64]
2 -14 23 -27 -91 -127 84 47
-4 127 127 10 -6 114 18 -112
4 93 -27 9 93 -2 -14 -46
4 -120 98 -31 -11 -85 -12 40
43 26 -88 -33 -81 56 -127 35
-11 13 47 -73 -82 -127 64 59
-67 63 -37 44 -78 -112 -27 53
-62 -34 -84 -30 26 51 51 78
-2 127 103 -22 -82 -40 17 80
24 125 17 123 -9 127 37 -116
-24 21 -102 31 122 -18 -61 11
52 -41 53 -25 64 -84 -24 43
76 127 -127 -105 -71 105 30 61
-49 22 127 -16 -116 -83 39 59
-64 83 -11 47 -63 -127 -119 76
-95 -92 -60 4 26 62 35 127
38 12 127 4 -127 11 -11 55
2 91 -5 69 34 86 -13 -40
-43 -23 -74 28 -120 -43 101 -31
94 0 -41 -127 74 -96 39 -43
75 108 -57 -48 -30 87 114 -56
-28 127 111 -73 -127 -83 23 52
-42 3 93 15 96 -62 -104 45
-43 -127 -30 22 -41 30 -23 30
70 58 -104 127 -63 -121 67 114
-27 45 73 15 -21 43 -4 -16
26 40 87 -17 90 -59 -29 1
17 -109 67 -23 -5 -75 -78 10
127 45 -52 -39 -18 88 -92 84
-55 36 79 -103 -48 -22 113 34
-31 80 -123 127 15 -117 127 41
-121 -29 -107 11 73 61 127 -104
00000000: 02f2 17e5 a581 542f fc7f 7f0a fa72 1290
00000010: 045d e509 5dfe f2d2 0488 62e1 f5ab f428
00000020: 2b1a a8df af38 8123 f50d 2fb7 ae81 403b
00000030: bd3f db2c b290 e535 c2de ace2 1a33 334e
00000040: fe7f 67ea aed8 1150 187d 117b f77f 258c
00000050: e815 9a1f 7aee c30b 34d7 35e7 40ac e82b
00000060: 4c7f 8197 b969 1e3d cf16 7ff0 8cad 273b
00000070: c053 f52f c181 894c a1a4 c404 1a3e 237f
00000080: 260c 7f04 810b f537 025b fb45 2256 f3d8
00000090: d5e9 b61c 88d5 65e1 5e00 d781 4aa0 27d5
000000a0: 4b6c c7d0 e257 72c8 e47f 6fb7 81ad 1734
000000b0: d603 5d0f 60c2 982d d581 e216 d71e e91e
000000c0: 463a 987f c187 4372 e52d 490f eb2b fcf0
000000d0: 1a28 57ef 5ac5 e301 1193 43e9 fbb5 b20a
000000e0: 7f2d ccd9 ee58 a454 c924 4f99 d0ea 7122
000000f0: e150 857f 0f8b 7f29 87e3 950b 493d 7f98

model_16/tf.nn.convolution_17/convolution i1 [12, 1, 1, 64]
-1 127 6 1 0 21 5 -11
-1 0 -105 -1 2 -2 0 -3
7 6 -4 35 -1 -11 9 -3
0 -17 -4 -2 1 -4 2 10
2 -5 0 2 -4 0 -10 3
-4 -77 0 5 0 2 0 4
-10 -7 -2 3 -4 -2 -11 -2
0 -6 -7 -23 -5 -3 -2 7
127 -4 -7 -16 -1 13 -6 -10
0 1 6 -12 57 -5 -8 10
-15 -13 -7 -4 8 -2 -22 4
0 -6 2 -44 -1 -13 78 2
0 6 -1 -68 4 0 -6 -1
3 -11 -10 -16 -1 -9 -1 9
2 -8 -10 -1 7 -15 -11 2
-6 4 3 -4 -1 0 -113 32
5 1 -21 4 0 7 -40 -10
-1 0 10 68 -7 -57 -123 -52
6 15 -16 16 -6 -26 -19 -125
-7 62 -8 -28 -1 -4 22 -8
14 24 0 45 -18 1 -35 49
-127 -2 -20 17 0 44 -1 4
-31 -21 16 -5 -12 -57 -14 -30
-20 42 -11 20 -5 9 -2 81
8 3 -2 0 0 13 -37 3
0 -1 0 70 -31 48 -120 -74
7 6 -10 2 -4 1 20 -109
9 11 0 -63 -1 -7 46 -3
7 -25 -1 61 -3 1 3 -85
-127 8 -1 21 1 21 0 9
-8 9 18 -18 -1 -36 6 15
16 68 2 -4 -7 11 2 81
00000000: ff7f 0601 0015 05f5 ff00 97ff 02fe 00fd
00000010: 0706 fc23 fff5 09fd 00ef fcfe 01fc 020a
00000020: 02fb 0002 fc00 f603 fcb3 0005 0002 0004
00000030: f6f9 fe03 fcfe f5fe 00fa f9e9 fbfd fe07
00000040: 7ffc f9f0 ff0d faf6 0001 06f4 39fb f80a
00000050: f1f3 f9fc 08fe ea04 00fa 02d4 fff3 4e02
00000060: 0006 ffbc 0400 faff 03f5 f6f0 fff7 ff09
00000070: 02f8 f6ff 07f1 f502 fa04 03fc ff00 8f20
00000080: 0501 eb04 0007 d8f6 ff00 0a44 f9c7 85cc
00000090: 060f f010 fae6 ed83 f93e f8e4 fffc 16f8
000000a0: 0e18 002d ee01 dd31 81fe ec11 002c ff04
000000b0: e1eb 10fb f4c7 f2e2 ec2a f514 fb09 fe51
000000c0: 0803 fe00 000d db03 00ff 0046 e130 88b6
000000d0: 0706 f602 fc01 1493 090b 00c1 fff9 2efd
000000e0: 07e7 ff3d fd01 03ab 8108 ff15 0115 0009
000000f0: f809 12ee ffdc 060f 1044 02fc f90b 0251

model_16/tf.compat.v1.nn.depthwise_conv2d_7/depthwise i1 [1, 3, 3, 64]
1 0 48 55 40 -45 -46 3
-87 -33 -1 78 16 52 -22 0
1 127 9 28 53 -37 -114 -7
15 -8 -92 3 -86 -2 8 -66
16 -6 -90 0 89 -86 -92 56
-31 -1 -19 18 86 87 -114 109
26 -27 55 60 -7 -101 21 49
42 3 23 2 -8 -9 2 12
-3 1 -12 106 -99 -12 4 39
108 -106 -13 127 127 125 -57 12
127 -123 32 -56 127 -127 127 -93
41 19 127 32 -120 -18 -12 55
127 -50 32 3 20 -35 -120 123
11 7 -37 17 -63 -68 -68 -104
41 82 127 22 -52 -127 -46 102
0 18 31 52 8 -58 78 13
-1 -2 -8 44 -103 67 -53 21
34 -127 10 78 22 52 -16 9
75 98 5 26 60 -38 12 -33
88 6 40 2 -48 -5 -4 22
80 -27 29 8 3 -119 -93 76
-38 8 8 12 56 21 -122 -63
22 13 22 4 22 -22 6 90
27 2 -43 34 114 -36 6 11
2 2 127 86 -113 -65 -72 49
-89 -53 67 40 8 65 -33 24
-11 -38 -33 -12 25 -47 -115 -60
-19 113 -40 15 -127 22 6 -127
-20 74 -69 8 127 -91 -103 65
4 -2 44 5 -81 127 -97 -28
1 -36 40 127 74 -80 -22 113
-14 17 3 17 -19 31 -1 15
00000000: 0100 3037 28d3 d203 a9df ff4e 1034 ea00
00000010: 017f 091c 35db 8ef9 0ff8 a403 aafe 08be
00000020: 10fa a600 59aa a438 e1ff ed12 5657 8e6d
00000030: 1ae5 373c f99b 1531 2a03 1702 f8f7 020c
00000040: fd01 f46a 9df4 0427 6c96 f37f 7f7d c70c
00000050: 7f85 20c8 7f81 7fa3 2913 7f20 88ee f437
00000060: 7fce 2003 14dd 887b 0b07 db11 c1bc bc98
00000070: 2952 7f16 cc81 d266 0012 1f34 08c6 4e0d
00000080: fffe f82c 9943 cb15 2281 0a4e 1634 f009
00000090: 4b62 051a 3cda 0cdf 5806 2802 d0fb fc16
000000a0: 50e5 1d08 0389 a34c da08 080c 3815 86c1
000000b0: 160d 1604 16ea 065a 1b02 d522 72dc 060b
000000c0: 0202 7f56 8fbf b831 a7cb 4328 0841 df18
000000d0: f5da dff4 19d1 8dc4 ed71 d80f 8116 0681
000000e0: ec4a bb08 7fa5 9941 04fe 2c05 af7f 9fe4
000000f0: 01dc 287f 4ab0 ea71 f211 0311 ed1f ff0f

model_16/tf.nn.convolution_16/convolution i1 [6, 1, 1, 64]
-14 -14 -41 54 -3 -17 50 1
59 18 -10 19 -24 16 -46 3
19 -27 0 10 -3 5 27 -1
0 1 2 19 2 4 17 59
8 -5 2 -3 0 -1 23 10
-22 -13 2 -127 0 12 26 28
-9 -3 -12 14 8 36 4 17
-4 -9 9 -10 1 -126 -12 -1
15 11 38 -55 2 16 -50 -1
-59 -20 11 -16 22 -17 44 0
-17 27 1 -10 1 -3 -25 2
0 0 -3 -22 -3 -6 -15 -59
-10 3 0 5 0 3 -23 -10
22 15 -2 127 -1 -9 -25 -28
10 6 11 -14 -7 -36 -6 -16
5 10 -11 11 -2 125 9 3
-2 -8 -127 23 13 24 30 5
43 13 7 8 -1 7 -20 2
-18 -101 0 -15 7 100 18 -10
0 -1 20 14 3 -1 9 20
-10 -9 0 -27 -8 1 20 5
31 -11 10 11 0 11 11 17
4 6 10 9 15 -29 -13 14
-14 -19 12 20 20 -25 -8 6
5 9 127 -23 -11 -24 -32 -5
-42 -12 -4 -6 3 -8 20 -4
18 102 1 15 -7 -100 -17 9
0 3 -21 -14 -1 2 -9 -19
8 10 0 27 6 -1 -20 -3
-31 8 -9 -11 0 -9 -11 -17
-2 -6 -12 -11 -14 31 14 -13
14 20 -13 -18 -18 25 7 -7
00000000: f2f2 d736 fdef 3201 3b12 f613 e810 d203
00000010: 13e5 000a fd05 1bff 0001 0213 0204 113b
00000020: 08fb 02fd 00ff 170a eaf3 0281 000c 1a1c
00000030: f7fd f40e 0824 0411 fcf7 09f6 0182 f4ff
00000040: 0f0b 26c9 0210 ceff c5ec 0bf0 16ef 2c00
00000050: ef1b 01f6 01fd e702 0000 fdea fdfa f1c5
00000060: f603 0005 0003 e9f6 160f fe7f fff7 e7e4
00000070: 0a06 0bf2 f9dc faf0 050a f50b fe7d 0903
00000080: fef8 8117 0d18 1e05 2b0d 0708 ff07 ec02
00000090: ee9b 00f1 0764 12f6 00ff 140e 03ff 0914
000000a0: f6f7 00e5 f801 1405 1ff5 0a0b 000b 0b11
000000b0: 0406 0a09 0fe3 f30e f2ed 0c14 14e7 f806
000000c0: 0509 7fe9 f5e8 e0fb d6f4 fcfa 03f8 14fc
000000d0: 1266 010f f99c ef09 0003 ebf2 ff02 f7ed
000000e0: 080a 001b 06ff ecfd e108 f7f5 00f7 f5ef
000000f0: fefa f4f5 f21f 0ef3 0e14 f3ee ee19 07f9

model_16/tf.compat.v1.nn.depthwise_conv2d_6/depthwise i1 [1, 3, 3, 64]
-49 1 -5 -53 -127 -43 22 11
83 -74 15 -27 -61 -59 -9 -126
12 49 -57 -35 -25 98 14 -19
-72 -19 41 -26 -5 -21 39 -83
5 63 -48 -10 -59 0 87 -127
-64 14 -25 6 -112 -63 50 -101
78 -23 -89 5 -2 27 127 54
27 50 4 -84 111 -36 12 61
127 -33 36 -102 -43 -127 22 -5
81 -34 -4 -127 -124 127 5 -110
19 53 -127 -127 -41 127 36 -35
127 -28 127 10 -23 -72 69 -62
127 127 86 -32 -88 8 -6 -18
-54 -12 -49 9 57 -19 38 -43
8 73 -55 -29 40 127 21 49
20 16 42 -32 127 -8 127 -72
-39 -6 7 -42 -111 -74 21 -16
85 -51 78 -14 -30 -53 0 -107
12 21 -115 -38 -29 89 9 -77
-19 -29 -51 -12 -43 -21 59 -73
27 48 33 -25 19 -34 102 20
-81 55 3 9 -67 48 55 -127
127 41 -48 -105 31 30 11 -38
12 127 -39 -62 94 -40 -12 127
33 -20 27 -108 -65 -111 23 -18
83 -127 -77 71 -55 -94 -5 -6
-36 35 65 -1 -61 98 64 119
34 -70 35 14 -61 -34 116 -64
-12 45 127 -6 -121 -59 34 -95
-107 -12 28 5 -126 -127 127 -99
38 0 -127 49 86 14 71 60
-8 56 -14 6 -47 -84 -6 -82
00000000: cf01 fbcb 81d5 160b 53b6 0fe5 c3c5 f782
00000010: 0c31 c7dd e762 0eed b8ed 29e6 fbeb 27ad
00000020: 053f d0f6 c500 5781 c00e e706 90c1 329b
00000030: 4ee9 a705 fe1b 7f36 1b32 04ac 6fdc 0c3d
00000040: 7fdf 249a d581 16fb 51de fc81 847f 0592
00000050: 1335 8181 d77f 24dd 7fe4 7f0a e9b8 45c2
00000060: 7f7f 56e0 a808 faee caf4 cf09 39ed 26d5
00000070: 0849 c9e3 287f 1531 1410 2ae0 7ff8 7fb8
00000080: d9fa 07d6 91b6 15f0 55cd 4ef2 e2cb 0095
00000090: 0c15 8dda e359 09b3 ede3 cdf4 d5eb 3bb7
000000a0: 1b30 21e7 13de 6614 af37 0309 bd30 3781
000000b0: 7f29 d097 1f1e 0bda 0c7f d9c2 5ed8 f47f
000000c0: 21ec 1b94 bf91 17ee 5381 b347 c9a2 fbfa
000000d0: dc23 41ff c362 4077 22ba 230e c3de 74c0
000000e0: f42d 7ffa 87c5 22a1 95f4 1c05 8281 7f9d
000000f0: 2600 8131 560e 473c f838 f206 d1ac faae

model_16/tf.nn.convolution_15/convolution i1 [64, 1, 1, 48]
55 127 110 5 -6 -38 36 40
8 -15 83 -1 -9 24 -20 -7
-39 16 -2 -16 -15 32 12 4
-77 29 20 -15 7 -55 30 28
-40 -13 -40 21 -6 10 -45 -27
-30 -27 -9 -11 -46 49 -33 -28
37 87 87 -60 -127 113 68 114
-31 51 -21 113 80 98 1 -34
61 52 -30 -8 3 21 13 9
-68 -63 65 -53 11 -8 -47 -3
19 -100 -22 -4 26 -61 -78 -71
-69 10 -15 -37 -13 42 -83 -86
59 -37 -75 32 -35 -26 28 30
-1 -55 46 59 70 -4 -67 23
-97 -76 47 -33 25 7 36 6
-17 -48 32 30 -22 34 5 75
-19 26 -19 7 41 -21 -34 7
52 -127 69 30 17 -16 56 25
80 19 -26 14 -49 19 118 127
-58 -16 63 48 4 84 -5 -30
2 53 -12 -11 35 60 -11 -5
-25 -36 -1 -45 82 7 -15 -15
-91 -7 6 -26 -21 16 -28 58
-19 -12 34 -28 81 44 -21 -28
48 30 2 6 -18 19 1 -3
-47 31 -10 42 21 -27 -9 38
-17 47 -18 -21 6 -41 -75 24
-19 -23 16 38 -48 83 -37 42
-46 42 34 104 -46 3 127 -32
-60 -62 36 46 -13 -21 68 -40
-31 103 40 83 66 -27 127 -29
-25 -41 33 120 -83 10 -4 -17
00000000: 377f 6e05 fada 2428 08f1 53ff f718 ecf9
00000010: d910 fef0 f120 0c04 b31d 14f1 07c9 1e1c
00000020: d8f3 d815 fa0a d3e5 e2e5 f7f5 d231 dfe4
00000030: 2557 57c4 8171 4472 e133 eb71 5062 01de
00000040: 3d34 e2f8 0315 0d09 bcc1 41cb 0bf8 d1fd
00000050: 139c eafc 1ac3 b2b9 bb0a f1db f32a adaa
00000060: 3bdb b520 dde6 1c1e ffc9 2e3b 46fc bd17
00000070: 9fb4 2fdf 1907 2406 efd0 201e ea22 054b
00000080: ed1a ed07 29eb de07 3481 451e 11f0 3819
00000090: 5013 e60e cf13 767f c6f0 3f30 0454 fbe2
000000a0: 0235 f4f5 233c f5fb e7dc ffd3 5207 f1f1
000000b0: a5f9 06e6 eb10 e43a edf4 22e4 512c ebe4
000000c0: 301e 0206 ee13 01fd d11f f62a 15e5 f726
000000d0: ef2f eeeb 06d7 b518 ede9 1026 d053 db2a
000000e0: d22a 2268 d203 7fe0 c4c2 242e f3eb 44d8
000000f0: e167 2853 42e5 7fe3 e7d7 2178 ad0a fcef

model_16/tf.compat.v1.nn.conv2d_2/Conv2D i1 [16, 3, 3, 16]
21 30 -45 -17 -22 13 -41 9
-52 21 39 20 39 -46 18 -6
0 -14 -11 -32 9 -2 23 23
6 25 39 55 18 -6 -8 -25
4 -15 -37 5 25 -35 -11 14
-17 34 60 25 27 -22 4 -35
61 21 -53 55 -23 -50 -18 -55
-40 11 83 28 48 -4 45 26
9 2 5 -91 22 48 119 39
77 -25 127 -65 55 -95 103 102
39 42 -44 84 -3 -41 76 -5
-21 53 97 -14 23 24 38 17
-36 -11 3 3 -13 -23 -18 -41
-31 24 -15 -59 27 -32 33 -18
-19 12 17 4 5 -46 -20 -27
-1 22 -6 -47 31 -7 -24 -27
-18 18 -9 -5 -7 -43 44 -44
-38 46 -45 -30 14 -1 22 -34
1 -9 -7 -8 17 -12 -3 19
-8 4 9 12 -39 16 8 -19
-10 -10 -33 -34 -2 -17 13 43
21 34 35 33 -18 -16 -9 -32
-12 -1 0 -17 19 -5 31 17
7 -5 17 32 -23 25 12 -14
-6 5 -16 24 -4 2 38 -8
12 -43 74 8 -36 -1 -28 27
-75 -62 49 -81 -30 -127 -66 40
7 28 76 -114 9 -32 31 -46
10 20 -41 7 2 -19 30 -23
14 -39 57 8 -47 -21 -58 13
-32 11 11 -26 -37 26 -20 6
13 -31 2 -16 -25 -8 -45 20
00000000: 151e d3ef ea0d d709 cc15 2714 27d2 12fa
00000010: 00f2 f5e0 09fe 1717 0619 2737 12fa f8e7
00000020: 04f1 db05 19dd f50e ef22 3c19 1bea 04dd
00000030: 3d15 cb37 e9ce eec9 d80b 531c 30fc 2d1a
00000040: 0902 05a5 1630 7727 4de7 7fbf 37a1 6766
00000050: 272a d454 fdd7 4cfb eb35 61f2 1718 2611
00000060: dcf5 0303 f3e9 eed7 e118 f1c5 1be0 21ee
00000070: ed0c 1104 05d2 ece5 ff16 fad1 1ff9 e8e5
00000080: ee12 f7fb f9d5 2cd4 da2e d3e2 0eff 16de
00000090: 01f7 f9f8 11f4 fd13 f804 090c d910 08ed
000000a0: f6f6 dfde feef 0d2b 1522 2321 eef0 f7e0
000000b0: f4ff 00ef 13fb 1f11 07fb 1120 e919 0cf2
000000c0: fa05 f018 fc02 26f8 0cd5 4a08 dcff e41b
000000d0: b5c2 31af e281 be28 071c 4c8e 09e0 1fd2
000000e0: 0a14 d707 02ed 1ee9 0ed9 3908 d1eb c60d
000000f0: e00b 0be6 db1a ec06 0de1 02f0 e7f8 d314

model_16/tf.nn.convolution_14/convolution i1 [16, 3, 3, 12]
-6 -31 -62 101 -35 48 23 3
-22 54 -34 14 -49 -33 36 20
0 66 -16 62 -27 -59 47 -65
-121 -49 -30 17 -61 104 88 -24
-24 -87 -61 20 13 1 27 19
-40 -15 1 -3 -24 94 13 42
-73 -31 23 -22 6 -10 11 -5
-39 -104 -18 5 -127 -37 -70 -40
-89 12 74 -68 -38 -22 -79 2
15 123 -35 123 -21 6 -20 46
0 61 52 122 -5 66 -32 48
-38 8 32 -25 -58 -6 -39 -75
28 -14 -8 74 -27 36 20 -92
-42 -32 -32 -13 29 7 -58 86
13 3 -33 -97 2 23 -19 8
-4 47 -23 101 -28 -23 -11 -56
2 0 -42 28 34 14 0 98
-75 -82 -24 -27 -42 -34 -13 -4
-2 78 -47 -52 13 -54 -36 -82
2 23 -40 4 -64 93 -51 18
57 -9 -64 -60 20 -32 -30 7
-40 1 -80 27 15 -78 -29 6
-18 6 -40 8 -13 67 -38 -58
33 -50 -51 -31 -9 -36 -19 -15
-42 127 -32 -50 3 -56 -103 -13
-9 -38 -56 -69 -26 14 -86 28
3 -44 -51 -68 -7 -30 -18 -45
31 61 -83 -127 50 -61 -88 -100
-17 50 -10 -3 55 63 -58 -86
38 -23 -49 -59 -13 49 29 60
3 21 -14 -51 42 -109 -8 -108
-18 27 -63 36 -25 32 -45 -1
00000000: fae1 c265 dd30 1703 ea36 de0e cfdf 2414
00000010: 0042 f03e e5c5 2fbf 87cf e211 c368 58e8
00000020: e8a9 c314 0d01 1b13 d8f1 01fd e85e 0d2a
00000030: b7e1 17ea 06f6 0bfb d998 ee05 81db bad8
00000040: a70c 4abc daea b102 0f7b dd7b eb06 ec2e
00000050: 003d 347a fb42 e030 da08 20e7 c6fa d9b5
00000060: 1cf2 f84a e524 14a4 d6e0 e0f3 1d07 c656
00000070: 0d03 df9f 0217 ed08 fc2f e965 e4e9 f5c8
00000080: 0200 d61c 220e 0062 b5ae e8e5 d6de f3fc
00000090: fe4e d1cc 0dca dcae 0217 d804 c05d cd12
000000a0: 39f7 c0c4 14e0 e207 d801 b01b 0fb2 e306
000000b0: ee06 d808 f343 dac6 21ce cde1 f7dc edf1
000000c0: d67f e0ce 03c8 99f3 f7da c8bb e60e aa1c
000000d0: 03d4 cdbc f9e2 eed3 1f3d ad81 32c3 a89c
000000e0: ef32 f6fd 373f c6aa 26e9 cfc5 f331 1d3c
000000f0: 0315 f2cd 2a93 f894 ee1b c124 e720 d3ff
