models/detection/version-slim-320_int8.tflite (tflite, 381000 bytes, 42 tensors)

model_1/reg_3_convbias/Conv2D i1 [12, 3, 3, 256]
-76 100 0 -123 -115 6 -4 -66
-94 91 -15 46 -9 75 76 46
110 -94 121 90 69 92 65 5
-78 48 -116 -50 29 42 -91 88
-23 -1 14 20 -71 -92 -52 -94
16 37 110 -45 -70 45 -13 -80
121 -19 90 86 119 59 -51 -97
3 -53 99 -107 122 33 -49 -75
-22 -99 114 17 -97 -86 105 50
112 -117 -95 127 -123 92 -15 -2
47 50 13 -71 -89 -97 -103 -10
-59 45 -81 -8 30 -96 14 28
-70 -14 -52 -100 -109 65 23 -45
-124 111 -67 -57 -119 -25 -24 -40
14 39 37 117 -15 98 72 71
-27 -32 115 -45 -42 -41 20 -27
21 -108 19 96 -122 -69 81 -107
101 127 2 -5 64 -53 32 29
-83 126 -30 -41 67 -78 -15 55
38 -16 -31 4 103 -51 65 36
-41 25 -123 49 27 72 -106 74
-25 -29 -68 -72 75 -116 78 14
110 -117 -90 -112 85 33 -105 11
-80 -8 10 -7 31 21 33 -55
-6 -52 -102 36 -29 -28 106 96
-10 -40 29 -29 -93 41 14 40
80 -82 -111 53 103 -77 -124 114
11 -27 -5 -23 20 16 69 36
122 58 34 -106 -74 -36 42 -114
-46 -18 81 53 65 -67 -121 -77
-37 15 90 107 -5 -104 0 112
19 -55 10 24 79 26 58 -108
00000000: b464 0085 8d06 fcbe a25b f12e f74b 4c2e
00000010: 6ea2 795a 455c 4105 b230 8cce 1d2a a558
00000020: e9ff 0e14 b9a4 cca2 1025 6ed3 ba2d f3b0
00000030: 79ed 5a56 773b cd9f 03cb 6395 7a21 cfb5
00000040: ea9d 7211 9faa 6932 708b a17f 855c f1fe
00000050: 2f32 0db9 a79f 99f6 c52d aff8 1ea0 0e1c
00000060: baf2 cc9c 9341 17d3 846f bdc7 89e7 e8d8
00000070: 0e27 2575 f162 4847 e5e0 73d3 d6d7 14e5
00000080: 1594 1360 86bb 5195 657f 02fb 40cb 201d
00000090: ad7e e2d7 43b2 f137 26f0 e104 67cd 4124
000000a0: d719 8531 1b48 964a e7e3 bcb8 4b8c 4e0e
000000b0: 6e8b a690 5521 970b b0f8 0af9 1f15 21c9
000000c0: facc 9a24 e3e4 6a60 f6d8 1de3 a329 0e28
000000d0: 50ae 9135 67b3 8472 0be5 fbe9 1410 4524
000000e0: 7a3a 2296 b6dc 2a8e d2ee 5135 41bd 87b3
000000f0: db0f 5a6b fb98 0070 13c9 0a18 4f1a 3a94

model_1/reg_2_sep_convbias/Conv2D i1 [8, 1, 1, 256]
50 12 -60 -17 26 -96 -33 -5
10 71 52 110 32 13 12 -61
30 -119 -104 -98 72 108 -110 -55
-6 2 -8 -60 -35 12 -74 -28
-13 14 -70 124 -53 -38 102 -83
45 -75 -61 38 -31 17 54 79
7 -34 77 -31 -118 107 -23 61
74 -81 -64 -118 -41 -66 -100 -41
-67 -18 50 111 35 120 4 119
-92 100 121 -20 117 -110 30 89
10 -110 -58 -63 62 -25 -112 21
-87 -108 -39 8 -39 53 14 -27
86 104 -61 -125 121 -1 -66 10
50 -11 17 79 10 45 7 77
31 -11 -60 92 -78 97 102 4
-4 57 -38 76 -33 -22 -63 -76
31 21 -78 -23 33 -99 28 127
-4 98 -104 67 -28 53 -103 -124
-57 -34 108 118 -27 -101 -52 127
-26 -46 120 53 -14 -52 -73 35
85 -28 -92 70 -71 105 -56 7
-80 -18 26 63 -70 108 33 10
3 34 -88 -55 46 88 -54 -108
59 66 8 104 -79 125 84 101
-46 -81 79 94 114 -25 -22 -9
59 3 12 -46 -2 92 -110 -83
-64 -70 60 93 -87 107 3 53
-79 18 78 -34 122 -17 -28 68
83 -116 55 -77 79 -127 -126 70
-105 -52 -75 -84 -99 25 26 92
77 -58 53 114 -35 85 53 38
58 -33 -29 -112 -68 -74 -114 -80
00000000: 320c c4ef 1aa0 dffb 0a47 346e 200d 0cc3
00000010: 1e89 989e 486c 92c9 fa02 f8c4 dd0c b6e4
00000020: f30e ba7c cbda 66ad 2db5 c326 e111 364f
00000030: 07de 4de1 8a6b e93d 4aaf c08a d7be 9cd7
00000040: bdee 326f 2378 0477 a464 79ec 7592 1e59
00000050: 0a92 c6c1 3ee7 9015 a994 d908 d935 0ee5
00000060: 5668 c383 79ff be0a 32f5 114f 0a2d 074d
00000070: 1ff5 c45c b261 6604 fc39 da4c dfea c1b4
00000080: 1f15 b2e9 219d 1c7f fc62 9843 e435 9984
00000090: c7de 6c76 e59b cc7f e6d2 7835 f2cc b723
000000a0: 55e4 a446 b969 c807 b0ee 1a3f ba6c 210a
000000b0: 0322 a8c9 2e58 ca94 3b42 0868 b17d 5465
000000c0: d2af 4f5e 72e7 eaf7 3b03 0cd2 fe5c 92ad
000000d0: c0ba 3c5d a96b 0335 b112 4ede 7aef e444
000000e0: 538c 37b3 4f81 8246 97cc b5ac 9d19 1a5c
000000f0: 4dc6 3572 dd55 3526 3adf e390 bcb6 8eb0

model_1/reg_2_sep_dconvbias/depthwise i1 [1, 3, 3, 256]
66 98 47 -98 71 -37 35 -107
-127 0 -109 -127 -5 38 -127 43
105 32 8 29 -16 -97 -4 72
114 -81 10 117 -3 -54 4 35
39 127 25 0 85 70 2 15
31 3 -82 22 -29 -59 28 -109
-73 77 93 35 6 -127 127 -80
-101 37 -127 -91 -56 -44 23 -98
39 -22 -38 -127 -83 59 -120 76
-93 127 -67 -58 -127 -127 21 -3
70 -115 13 0 -127 78 -66 127
-10 -29 -127 98 35 34 -42 -107
127 -54 119 -42 -104 -127 71 -75
-36 61 -74 32 -1 -90 109 -127
118 -127 73 -66 -46 20 -66 84
55 65 -30 -2 -35 81 60 -76
30 127 127 32 121 127 -98 99
76 -42 0 -74 101 -17 -127 12
-117 -67 81 -90 -123 -4 -124 -117
127 21 107 -29 -57 -106 -3 -105
41 -69 -69 -10 127 54 -116 -92
104 -117 -4 -43 -10 -16 14 72
-40 -105 6 -100 -106 -101 115 127
-122 14 20 125 127 -55 -43 111
79 -3 56 -7 -14 94 38 90
119 -127 -51 67 127 45 -122 -47
116 83 127 63 -70 111 -127 -93
12 127 -80 23 -19 8 115 -114
65 -116 -56 98 100 17 -63 104
40 90 -107 46 49 71 -127 47
60 -52 48 -48 -31 30 -120 -109
-50 -116 -25 -48 64 44 -22 -28
00000000: 4262 2f9e 47db 2395 8100 9381 fb26 812b
00000010: 6920 081d f09f fc48 72af 0a75 fdca 0423
00000020: 277f 1900 5546 020f 1f03 ae16 e3c5 1c93
00000030: b74d 5d23 0681 7fb0 9b25 81a5 c8d4 179e
00000040: 27ea da81 ad3b 884c a37f bdc6 8181 15fd
00000050: 468d 0d00 814e be7f f6e3 8162 2322 d695
00000060: 7fca 77d6 9881 47b5 dc3d b620 ffa6 6d81
00000070: 7681 49be d214 be54 3741 e2fe dd51 3cb4
00000080: 1e7f 7f20 797f 9e63 4cd6 00b6 65ef 810c
00000090: 8bbd 51a6 85fc 848b 7f15 6be3 c796 fd97
000000a0: 29bb bbf6 7f36 8ca4 688b fcd5 f6f0 0e48
000000b0: d897 069c 969b 737f 860e 147d 7fc9 d56f
000000c0: 4ffd 38f9 f25e 265a 7781 cd43 7f2d 86d1
000000d0: 7453 7f3f ba6f 81a3 0c7f b017 ed08 738e
000000e0: 418c c862 6411 c168 285a 952e 3147 812f
000000f0: 3ccc 30d0 e11e 8893 ce8c e7d0 402c eae4

model_1/reg_1_sep_convbias/Conv2D i1 [8, 1, 1, 128]
-96 81 -43 107 -100 47 -1 -62
43 -55 84 92 -30 -37 31 -51
-127 85 -7 -45 -69 12 -7 -123
78 -84 10 -2 20 31 -118 92
111 -20 -53 56 -120 -93 -78 -32
101 -78 -43 61 -37 -106 -55 -61
-123 -118 92 91 67 118 113 21
55 67 116 5 -76 -125 95 -53
-127 -91 93 84 -19 -104 126 -23
-50 61 63 -107 -114 46 114 105
61 -105 -43 56 34 -20 48 -47
-39 -10 15 -66 -45 -102 -96 -38
-65 -16 40 -123 73 127 101 8
-123 -86 -75 100 -76 -53 -89 -98
104 -119 -41 61 -30 -117 72 -85
-42 -9 34 -54 -106 23 44 92
-77 -76 70 -88 58 117 25 0
-120 80 19 26 -85 -24 1 -53
-4 28 83 -54 127 115 111 -119
108 -106 23 105 58 99 -110 -7
22 -66 7 -4 8 123 5 -75
71 -63 -93 -38 -57 -87 40 -79
60 123 -42 -79 -24 -81 -54 96
53 88 -97 17 -46 69 -30 24
-58 -80 -65 97 -63 43 -49 -122
-112 21 4 -24 -32 -102 -76 -41
43 21 67 -89 -86 -57 -33 41
124 -91 -8 42 -3 -122 92 -96
21 82 -120 8 -105 -11 31 58
-62 -114 -7 106 -10 78 -78 60
-62 -33 -26 -109 94 -73 92 96
-54 -46 -71 11 113 -36 0 50
00000000: a051 d56b 9c2f ffc2 2bc9 545c e2db 1fcd
00000010: 8155 f9d3 bb0c f985 4eac 0afe 141f 8a5c
00000020: 6fec cb38 88a3 b2e0 65b2 d53d db96 c9c3
00000030: 858a 5c5b 4376 7115 3743 7405 b483 5fcb
00000040: 81a5 5d54 ed98 7ee9 ce3d 3f95 8e2e 7269
00000050: 3d97 d538 22ec 30d1 d9f6 0fbe d39a a0da
00000060: bff0 2885 497f 6508 85aa b564 b4cb a79e
00000070: 6889 d73d e28b 48ab d6f7 22ca 9617 2c5c
00000080: b3b4 46a8 3a75 1900 8850 131a abe8 01cb
00000090: fc1c 53ca 7f73 6f89 6c96 1769 3a63 92f9
000000a0: 16be 07fc 087b 05b5 47c1 a3da c7a9 28b1
000000b0: 3c7b d6b1 e8af ca60 3558 9f11 d245 e218
000000c0: c6b0 bf61 c12b cf86 9015 04e8 e09a b4d7
000000d0: 2b15 43a7 aac7 df29 7ca5 f82a fd86 5ca0
000000e0: 1552 8808 97f5 1f3a c28e f96a f64e b23c
000000f0: c2df e693 5eb7 5c60 cad2 b90b 71dc 0032

model_1/reg_1_sep_dconvbias/depthwise i1 [1, 3, 3, 128]
0 -54 -109 65 -71 75 100 0
127 -28 -89 117 52 84 46 -103
4 -69 7 -98 -127 -19 -18 115
-21 63 42 91 119 42 -8 36
-101 -110 57 -89 5 78 -14 15
-102 57 -127 -60 -20 49 127 116
-66 -26 109 114 -24 124 -45 89
62 40 -16 127 72 97 27 111
-71 45 -83 99 62 21 -59 -27
127 25 -7 78 109 -127 46 50
-118 11 13 -122 90 -39 -18 -76
24 34 4 115 43 -5 -29 -70
4 -127 33 127 -4 -51 -127 -11
-53 -8 112 57 -127 -127 116 -120
-115 16 -52 121 81 106 47 -26
-115 108 -40 63 -109 32 -21 -85
127 49 95 -63 -36 -97 105 -127
122 -10 -65 107 120 42 -97 -111
23 104 127 -127 -96 56 -127 23
87 24 80 127 -57 -120 76 -63
55 41 127 -33 121 101 -57 127
127 106 77 6 -106 99 114 -46
127 9 -105 96 -78 -63 127 -127
-123 -18 -3 109 102 -127 -42 70
-74 -69 -6 116 -82 -127 -114 54
-5 -112 -78 -79 91 106 -127 127
97 97 112 -107 60 29 -34 -110
34 -5 -25 83 121 87 123 -12
-3 40 -67 78 50 -33 -121 113
-10 -30 -8 -72 -11 -89 -97 -122
127 127 127 -89 0 -127 127 -27
85 49 83 127 -79 58 -1 127
00000000: 00ca 9341 b94b 6400 7fe4 a775 3454 2e99
00000010: 04bb 079e 81ed ee73 eb3f 2a5b 772a f824
00000020: 9b92 39a7 054e f20f 9a39 81c4 ec31 7f74
00000030: bee6 6d72 e87c d359 3e28 f07f 4861 1b6f
00000040: b92d ad63 3e15 c5e5 7f19 f94e 6d81 2e32
00000050: 8a0b 0d86 5ad9 eeb4 1822 0473 2bfb e3ba
00000060: 0481 217f fccd 81f5 cbf8 7039 8181 7488
00000070: 8d10 cc79 516a 2fe6 8d6c d83f 9320 ebab
00000080: 7f31 5fc1 dc9f 6981 7af6 bf6b 782a 9f91
00000090: 1768 7f81 a038 8117 5718 507f c788 4cc1
000000a0: 3729 7fdf 7965 c77f 7f6a 4d06 9663 72d2
000000b0: 7f09 9760 b2c1 7f81 85ee fd6d 6681 d646
000000c0: b6bb fa74 ae81 8e36 fb90 b2b1 5b6a 817f
000000d0: 6161 7095 3c1d de92 22fb e753 7957 7bf4
000000e0: fd28 bd4e 32df 8771 f6e2 f8b8 f5a7 9f86
000000f0: 7f7f 7fa7 0081 7fe5 5531 537f b13a ff7f

model_1/reg_0_sep_convbias/Conv2D i1 [12, 1, 1, 64]
64 103 9 -18 4 47 -124 96
-97 -59 -88 -127 -19 -8 -4 -70
91 113 15 12 -64 -85 71 89
-72 -122 79 39 -64 106 118 -88
38 -52 -110 21 112 -42 117 126
96 23 -119 75 -90 -71 90 117
49 -21 102 67 -101 -107 81 108
101 66 36 -32 -26 113 -61 92
-62 -47 113 -97 -105 -127 2 -93
123 9 -46 -47 43 118 1 -34
-15 10 29 58 -92 -70 72 101
-112 36 -106 -29 -126 -91 -114 76
74 79 37 79 -95 -30 -42 -48
43 54 -110 -95 82 62 -33 -26
-60 -60 -63 -76 -40 12 -58 -99
-86 -57 31 -62 -105 -36 -18 -94
-71 11 -96 114 23 -24 -100 53
44 -110 35 -124 100 -66 88 -34
-98 -98 -81 -65 -115 110 -5 -66
90 15 -127 127 -43 43 41 -126
-81 111 111 -30 -119 -92 -87 -78
79 78 -57 -63 6 31 57 116
-60 -45 -26 122 -97 -67 100 117
87 116 -87 -104 113 -82 0 114
-19 2 -105 -105 17 63 38 -71
-6 0 116 -48 -1 104 -57 101
107 -31 -85 -28 -99 54 67 -60
102 112 -121 -114 60 127 53 36
-90 89 62 -46 -44 -25 -53 -121
-68 -5 33 86 59 -55 51 103
-27 -43 -42 -37 -68 88 -75 -67
87 11 -85 -77 -33 44 -114 -65
00000000: 4067 09ee 042f 8460 9fc5 a881 edf8 fcba
00000010: 5b71 0f0c c0ab 4759 b886 4f27 c06a 76a8
00000020: 26cc 9215 70d6 757e 6017 894b a6b9 5a75
00000030: 31eb 6643 9b95 516c 6542 24e0 e671 c35c
00000040: c2d1 719f 9781 02a3 7b09 d2d1 2b76 01de
00000050: f10a 1d3a a4ba 4865 9024 96e3 82a5 8e4c
00000060: 4a4f 254f a1e2 d6d0 2b36 92a1 523e dfe6
00000070: c4c4 c1b4 d80c c69d aac7 1fc2 97dc eea2
00000080: b90b a072 17e8 9c35 2c92 2384 64be 58de
00000090: 9e9e afbf 8d6e fbbe 5a0f 817f d52b 2982
000000a0: af6f 6fe2 89a4 a9b2 4f4e c7c1 061f 3974
000000b0: c4d3 e67a 9fbd 6475 5774 a998 71ae 0072
000000c0: ed02 9797 113f 26b9 fa00 74d0 ff68 c765
000000d0: 6be1 abe4 9d36 43c4 6670 878e 3c7f 3524
000000e0: a659 3ed2 d4e7 cb87 bcfb 2156 3bc9 3367
000000f0: e5d5 d6db bc58 b5bd 570b abb3 df2c 8ebf

model_1/reg_0_sep_dconvbias/depthwise i1 [1, 3, 3, 64]
-6 10 -5 -3 75 -122 39 75
93 55 -13 -71 -10 -88 121 -82
0 -122 90 -127 54 -38 -127 80
43 -107 15 62 81 84 127 54
56 115 103 97 -58 -104 85 -29
88 -61 -119 -107 59 95 60 -56
57 -74 8 43 -88 125 -81 -120
78 -120 -94 -124 127 -30 -81 124
-88 -1 -77 116 127 127 1 -25
102 -113 -77 -31 43 37 84 40
-15 22 -36 105 67 -95 -125 127
16 -6 -127 -63 -70 -82 116 85
60 -127 -3 25 127 127 -98 -124
-67 -117 -2 -4 -66 -59 -115 -127
19 50 102 -70 91 -57 -81 -13
-33 97 -103 62 -93 -41 115 52
-74 -99 -92 -6 -106 69 -90 -66
13 -3 115 127 -60 65 -127 -94
-127 -116 -16 -102 113 89 32 -96
-44 20 -21 37 -120 -78 -21 -82
-71 64 -95 127 18 -105 47 127
-38 73 -107 45 6 -53 81 91
127 28 19 -75 -26 -9 75 37
127 73 98 50 55 -36 69 64
-17 -18 127 -50 123 -25 53 -80
-29 19 -73 -106 52 121 15 -92
13 25 -112 31 -75 68 -16 110
-89 -116 126 0 23 89 -80 66
45 -23 -127 67 -58 70 62 36
-127 -104 127 95 37 124 75 -81
-90 -43 67 67 -106 19 -87 96
-57 127 8 -124 -122 127 -14 51
00000000: fa0a fbfd 4b86 274b 5d37 f3b9 f6a8 79ae
00000010: 0086 5a81 36da 8150 2b95 0f3e 5154 7f36
00000020: 3873 6761 c698 55e3 58c3 8995 3b5f 3cc8
00000030: 39b6 082b a87d af88 4e88 a284 7fe2 af7c
00000040: a8ff b374 7f7f 01e7 668f b3e1 2b25 5428
00000050: f116 dc69 43a1 837f 10fa 81c1 baae 7455
00000060: 3c81 fd19 7f7f 9e84 bd8b fefc bec5 8d81
00000070: 1332 66ba 5bc7 aff3 df61 993e a3d7 7334
00000080: b69d a4fa 9645 a6be 0dfd 737f c441 81a2
00000090: 818c f09a 7159 20a0 d414 eb25 88b2 ebae
000000a0: b940 a17f 1297 2f7f da49 952d 06cb 515b
000000b0: 7f1c 13b5 e6f7 4b25 7f49 6232 37dc 4540
000000c0: efee 7fce 7be7 35b0 e313 b796 3479 0fa4
000000d0: 0d19 901f b544 f06e a78c 7e00 1759 b042
000000e0: 2de9 8143 c646 3e24 8198 7f5f 257c 4baf
000000f0: a6d5 4343 9613 a960 c77f 0884 867f f233

model_1/cls_3_convbias/Conv2D i1 [6, 3, 3, 256]
-43 -118 37 51 47 62 -115 -5
-94 2 -20 99 -112 -108 38 -16
-65 82 -47 -125 -28 16 68 35
36 59 -9 -38 24 53 -58 -80
-19 122 -89 21 114 111 -48 81
15 50 -45 68 116 111 46 -81
84 88 -6 23 -99 22 -33 -108
66 -120 13 -54 -27 62 -14 78
-125 102 78 -30 6 10 -74 118
95 55 22 54 -111 -94 -52 -28
-102 60 -21 47 -90 62 0 113
102 -104 73 -68 124 -20 -99 8
98 -56 -76 -57 84 -2 -24 3
-16 -40 -70 100 -93 108 15 -28
-72 -101 14 114 -9 11 21 -117
14 -97 -102 6 118 52 -74 -121
106 117 44 -34 -85 7 -120 -23
79 -24 94 45 -96 17 -58 -57
81 -127 -68 17 -35 -54 -23 100
6 84 104 73 101 31 77 106
23 -81 78 -70 88 -25 6 2
-32 38 108 1 93 51 -122 -63
-66 -38 -69 95 -14 86 -37 -65
-69 -93 -21 -55 -46 77 25 29
91 103 -19 39 70 -25 -72 108
72 46 -57 17 -112 -97 101 96
63 -9 -83 -49 56 -1 0 -120
-15 20 110 -52 3 -35 -25 91
-6 -21 -14 114 63 -79 -15 -32
101 -96 -95 101 -46 102 82 81
-33 -56 91 64 56 92 -66 -98
83 73 43 36 -43 -114 -87 108
00000000: d58a 2533 2f3e 8dfb a202 ec63 9094 26f0
00000010: bf52 d183 e410 4423 243b f7da 1835 c6b0
00000020: ed7a a715 726f d051 0f32 d344 746f 2eaf
00000030: 5458 fa17 9d16 df94 4288 0dca e53e f24e
00000040: 8366 4ee2 060a b676 5f37 1636 91a2 cce4
00000050: 9a3c eb2f a63e 0071 6698 49bc 7cec 9d08
00000060: 62c8 b4c7 54fe e803 f0d8 ba64 a36c 0fe4
00000070: b89b 0e72 f70b 158b 0e9f 9a06 7634 b687
00000080: 6a75 2cde ab07 88e9 4fe8 5e2d a011 c6c7
00000090: 5181 bc11 ddca e964 0654 6849 651f 4d6a
000000a0: 17af 4eba 58e7 0602 e026 6c01 5d33 86c1
000000b0: beda bb5f f256 dbbf bba3 ebc9 d24d 191d
000000c0: 5b67 ed27 46e7 b86c 482e c711 909f 6560
000000d0: 3ff7 adcf 38ff 0088 f114 6ecc 03dd e75b
000000e0: faeb f272 3fb1 f1e0 65a0 a165 d266 5251
000000f0: dfc8 5b40 385c be9e 5349 2b24 d58e a96c

model_1/extras_sep_convbias/Conv2D i1 [256, 1, 1, 64]
45 -14 89 50 106 -55 114 -51
89 63 -29 -85 94 94 -19 -18
115 -105 17 -108 111 97 42 32
-81 -54 31 -51 -88 -65 -81 -100
-18 72 -91 -55 -42 4 106 -18
108 -106 -40 98 -103 8 45 -111
6 123 34 48 -89 93 -96 23
-112 30 -25 58 -107 -127 -81 87
-25 127 -85 -84 -50 -96 15 -68
56 13 -24 43 27 103 42 -97
-114 60 -85 -44 7 -34 -67 48
-78 2 73 -88 -1 64 82 -1
-32 91 125 22 47 -102 -37 92
-71 100 86 -87 72 -18 10 2
25 -3 1 -103 -12 52 90 35
121 -13 59 -39 71 124 12 97
-72 59 100 -2 -21 -16 -106 91
28 -43 -84 -115 -87 -43 -106 97
-28 -57 67 -86 121 -42 -11 51
127 84 -16 76 126 95 25 34
-121 39 70 -94 -35 116 106 -92
-65 -62 51 118 -29 85 -35 72
27 -11 64 -18 25 66 20 -2
111 85 -59 -29 -86 -28 120 109
94 -79 -40 50 -65 49 -55 -40
14 -114 88 -89 -23 -97 -74 -104
-109 -64 -3 127 1 -5 -2 22
-110 -101 -111 10 2 -107 12 -42
-75 -124 41 80 -32 -84 112 104
-88 100 66 1 -75 61 -5 79
-94 80 37 -45 56 39 123 58
-112 75 114 -12 91 4 62 -90
00000000: 2df2 5932 6ac9 72cd 593f e3ab 5e5e edee
00000010: 7397 1194 6f61 2a20 afca 1fcd a8bf af9c
00000020: ee48 a5c9 d604 6aee 6c96 d862 9908 2d91
00000030: 067b 2230 a75d a017 901e e73a 9581 af57
00000040: e77f abac cea0 0fbc 380d e82b 1b67 2a9f
00000050: 8e3c abd4 07de bd30 b202 49a8 ff40 52ff
00000060: e05b 7d16 2f9a db5c b964 56a9 48ee 0a02
00000070: 19fd 0199 f434 5a23 79f3 3bd9 477c 0c61
00000080: b83b 64fe ebf0 965b 1cd5 ac8d a9d5 9661
00000090: e4c7 43aa 79d6 f533 7f54 f04c 7e5f 1922
000000a0: 8727 46a2 dd74 6aa4 bfc2 3376 e355 dd48
000000b0: 1bf5 40ee 1942 14fe 6f55 c5e3 aae4 786d
000000c0: 5eb1 d832 bf31 c9d8 0e8e 58a7 e99f b698
000000d0: 93c0 fd7f 01fb fe16 929b 910a 0295 0cd6
000000e0: b584 2950 e0ac 7068 a864 4201 b53d fb4f
000000f0: a250 25d3 3827 7b3a 904b 72f4 5b04 3ea6

model_1/extras_sep_dconvbias/depthwise i1 [1, 3, 3, 64]
18 -121 69 19 -7 -35 60 96
-76 67 -98 37 -71 -53 -105 -95
-89 127 -49 127 127 -107 89 49
-13 123 121 -68 111 78 105 -110
-103 -25 -16 -82 -102 28 -6 -127
-6 -127 -4 14 -10 102 11 -127
-90 97 11 -116 -12 57 125 -41
-11 -69 119 -47 121 67 14 2
-98 15 30 46 0 -57 -102 67
-127 -109 127 85 -9 20 47 -15
127 102 -15 30 21 -42 -100 116
-92 53 -39 110 -11 -127 -127 -78
127 53 82 -127 -127 86 94 7
96 121 97 -101 -96 81 59 83
-127 105 47 123 -13 17 -41 69
-106 -100 127 -34 16 -51 -65 -105
35 21 -62 38 -113 -127 112 -2
-69 0 36 -52 127 -127 127 1
-108 -71 1 -83 -55 111 127 45
85 31 55 -31 -106 -46 79 47
108 90 127 90 -25 12 -27 -73
87 56 114 34 -112 -42 13 81
-91 51 -56 -52 -2 -74 -80 23
-58 114 16 -114 19 -127 111 127
127 50 127 0 72 -109 -127 3
-55 -67 46 -13 -71 35 67 -21
-114 1 123 -42 39 -53 59 -87
-15 83 86 -100 -124 81 -91 76
-31 34 -32 33 116 -119 40 -24
17 37 -94 16 106 8 -24 25
-66 -117 -36 -122 76 -127 116 -62
-79 9 -10 -79 117 39 -127 103
00000000: 1287 4513 f9dd 3c60 b443 9e25 b9cb 97a1
00000010: a77f cf7f 7f95 5931 f37b 79bc 6f4e 6992
00000020: 99e7 f0ae 9a1c fa81 fa81 fc0e f666 0b81
00000030: a661 0b8c f439 7dd7 f5bb 77d1 7943 0e02
00000040: 9e0f 1e2e 00c7 9a43 8193 7f55 f714 2ff1
00000050: 7f66 f11e 15d6 9c74 a435 d96e f581 81b2
00000060: 7f35 5281 8156 5e07 6079 619b a051 3b53
00000070: 8169 2f7b f311 d745 969c 7fde 10cd bf97
00000080: 2315 c226 8f81 70fe bb00 24cc 7f81 7f01
00000090: 94b9 01ad c96f 7f2d 551f 37e1 96d2 4f2f
000000a0: 6c5a 7f5a e70c e5b7 5738 7222 90d6 0d51
000000b0: a533 c8cc feb6 b017 c672 108e 1381 6f7f
000000c0: 7f32 7f00 4893 8103 c9bd 2ef3 b923 43eb
000000d0: 8e01 7bd6 27cb 3ba9 f153 569c 8451 a54c
000000e0: e122 e021 7489 28e8 1125 a210 6a08 e819
000000f0: be8b dc86 4c81 74c2 b109 f6b1 7527 8167

model_1/extras_convbias/Conv2D i1 [64, 1, 1, 256]
102 -35 -71 -4 -13 77 93 85
-1 66 2 111 0 107 49 78
-4 32 -103 -61 -57 43 51 -34
5 -115 -108 98 99 12 -42 38
-100 40 51 -108 -66 -97 10 -50
-29 100 9 -95 1 -51 116 -16
-98 -85 -120 -126 76 44 -90 76
92 25 85 -87 -108 109 3 -32
-25 86 35 -49 -87 -110 -93 33
78 -105 -58 43 111 -20 -54 -124
29 44 -14 -113 15 113 9 86
-21 4 -98 -52 47 32 51 -105
100 -72 7 77 -25 94 121 -85
17 -99 -98 90 -119 -30 -64 33
-13 32 -10 -48 -57 -6 31 103
98 23 -48 109 -81 80 -92 -113
-24 116 25 -83 39 77 101 125
118 -98 49 105 -87 -6 127 15
-123 -109 119 123 -117 -45 1 -101
-13 -55 25 -60 14 34 -125 -68
117 -64 25 -29 114 -40 21 54
-81 28 -81 -37 77 -98 21 93
-25 80 -58 -22 -127 -117 -93 -51
26 94 -75 99 56 -124 -67 63
-10 49 14 17 -90 -115 118 10
110 25 89 64 -94 -102 -4 87
91 113 -39 -79 -122 -104 -40 -28
-77 -69 103 -32 84 -126 103 -3
-6 -66 -58 106 -58 54 -79 -33
-74 -75 -54 -29 -88 -58 113 -13
-92 65 -38 -118 -48 -29 61 -27
-68 50 -67 77 10 92 100 -57
00000000: 66dd b9fc f34d 5d55 ff42 026f 006b 314e
00000010: fc20 99c3 c72b 33de 058d 9462 630c d626
00000020: 9c28 3394 be9f 0ace e364 09a1 01cd 74f0
00000030: 9eab 8882 4c2c a64c 5c19 55a9 946d 03e0
00000040: e756 23cf a992 a321 4e97 c62b 6fec ca84
00000050: 1d2c f28f 0f71 0956 eb04 9ecc 2f20 3397
00000060: 64b8 074d e75e 79ab 119d 9e5a 89e2 c021
00000070: f320 f6d0 c7fa 1f67 6217 d06d af50 a48f
00000080: e874 19ad 274d 657d 769e 3169 a9fa 7f0f
00000090: 8593 777b 8bd3 019b f3c9 19c4 0e22 83bc
000000a0: 75c0 19e3 72d8 1536 af1c afdb 4d9e 155d
000000b0: e750 c6ea 818b a3cd 1a5e b563 3884 bd3f
000000c0: f631 0e11 a68d 760a 6e19 5940 a29a fc57
000000d0: 5b71 d9b1 8698 d8e4 b3bb 67e0 5482 67fd
000000e0: fabe c66a c636 b1df b6b5 cae3 a8c6 71f3
000000f0: a441 da8a d0e3 3de5 bc32 bd4d 0a5c 64c7

model_1/cls_2_sep_convbias/Conv2D i1 [4, 1, 1, 256]
-94 15 -31 8 124 -76 107 11
38 39 -115 -106 14 -84 -124 -44
58 -108 90 -68 106 23 19 -91
-101 14 -112 93 -21 84 76 107
-95 77 -6 -122 91 103 35 1
-120 -60 69 107 43 65 8 -87
-115 -2 -49 34 -96 -82 -26 26
107 38 -27 -5 -27 -85 106 48
-11 50 31 79 3 62 -106 63
89 26 45 102 -106 110 -116 -47
-84 -34 -60 -75 -81 110 -2 -113
-12 67 -81 55 -40 -98 115 -25
9 16 15 25 -121 51 122 57
-13 -22 -110 47 -33 -84 -83 100
63 -46 -125 94 68 20 60 120
-104 -9 -57 123 -82 16 -73 59
49 28 84 10 76 -118 -68 -116
55 -42 77 -84 95 113 -18 59
115 -24 -40 12 124 -43 78 -26
-100 119 15 -105 -31 -122 110 -87
-3 -106 -10 -67 -55 -80 -35 -114
20 93 -17 -47 99 70 -98 -27
-62 69 -12 -73 76 11 56 7
3 101 125 -47 23 -9 85 -103
-1 -15 62 109 -33 108 127 -36
6 67 35 -24 -103 -92 7 -17
104 -51 114 119 79 94 25 50
4 42 -15 81 72 42 90 -16
-47 106 -102 -53 -119 -92 -89 -106
-46 -16 -87 -11 101 -104 90 29
69 123 -126 61 46 -19 -72 41
-110 43 24 -103 -46 57 -70 -62
00000000: a20f e108 7cb4 6b0b 2627 8d96 0eac 84d4
00000010: 3a94 5abc 6a17 13a5 9b0e 905d eb54 4c6b
00000020: a14d fa86 5b67 2301 88c4 456b 2b41 08a9
00000030: 8dfe cf22 a0ae e61a 6b26 e5fb e5ab 6a30
00000040: f532 1f4f 033e 963f 591a 2d66 966e 8cd1
00000050: acde c4b5 af6e fe8f f443 af37 d89e 73e7
00000060: 0910 0f19 8733 7a39 f3ea 922f dfac ad64
00000070: 3fd2 835e 4414 3c78 98f7 c77b ae10 b73b
00000080: 311c 540a 4c8a bc8c 37d6 4dac 5f71 ee3b
00000090: 73e8 d80c 7cd5 4ee6 9c77 0f97 e186 6ea9
000000a0: fd96 f6bd c9b0 dd8e 145d efd1 6346 9ee5
000000b0: c245 f4b7 4c0b 3807 0365 7dd1 17f7 5599
000000c0: fff1 3e6d df6c 7fdc 0643 23e8 99a4 07ef
000000d0: 68cd 7277 4f5e 1932 042a f151 482a 5af0
000000e0: d16a 9acb 89a4 a796 d2f0 a9f5 6598 5a1d
000000f0: 457b 823d 2eed b829 922b 1899 d239 bac2

model_1/cls_2_sep_dconvbias/depthwise i1 [1, 3, 3, 256]
-73 104 120 -126 -56 -40 107 19
2 -88 -127 -11 -78 -35 59 127
17 -89 90 -118 31 70 -126 60
-68 -73 26 -54 -127 -67 -7 55
81 42 101 -60 -109 -127 -67 127
105 -79 114 76 -96 -120 39 -16
-59 -102 82 -10 29 115 -77 5
-122 126 -16 9 99 -58 -88 58
40 6 -25 -108 -31 127 -48 120
-56 37 -116 94 -127 80 -126 -117
121 80 26 73 -117 100 -48 127
23 60 95 87 -87 80 -105 -22
-60 -105 103 -96 58 -89 27 -123
124 -20 80 35 -112 -62 68 120
-121 47 -113 127 -123 -18 127 28
31 -33 127 -122 -111 44 -39 -82
21 -116 -63 -77 -31 127 -98 127
-35 87 -34 50 29 34 53 31
106 -126 84 -125 73 -73 -93 35
-127 83 48 125 16 48 -20 100
-85 -20 -73 17 124 -120 -100 50
-105 -99 27 -29 -79 6 -58 8
-23 -102 -57 90 15 -34 -16 -74
36 62 -117 47 41 -65 103 67
54 7 -61 127 -3 -88 -29 -125
109 -127 76 -80 -89 25 96 -42
48 -99 -24 51 -38 -96 -102 71
47 3 -108 73 -127 26 58 -110
-83 -106 112 103 119 -127 -25 53
-98 -58 -30 -51 -114 17 82 127
45 3 24 -30 -7 -25 -88 126
7 56 -24 -20 -65 6 -48 17
00000000: b768 7882 c8d8 6b13 02a8 81f5 b2dd 3b7f
00000010: 11a7 5a8a 1f46 823c bcb7 1aca 81bd f937
00000020: 512a 65c4 9381 bd7f 69b1 724c a088 27f0
00000030: c59a 52f6 1d73 b305 867e f009 63c6 a83a
00000040: 2806 e794 e17f d078 c825 8c5e 8150 828b
00000050: 7950 1a49 8b64 d07f 173c 5f57 a950 97ea
00000060: c497 67a0 3aa7 1b85 7cec 5023 90c2 4478
00000070: 872f 8f7f 85ee 7f1c 1fdf 7f86 912c d9ae
00000080: 158c c1b3 e17f 9e7f dd57 de32 1d22 351f
00000090: 6a82 5483 49b7 a323 8153 307d 1030 ec64
000000a0: abec b711 7c88 9c32 979d 1be3 b106 c608
000000b0: e99a c75a 0fde f0b6 243e 8b2f 29bf 6743
000000c0: 3607 c37f fda8 e383 6d81 4cb0 a719 60d6
000000d0: 309d e833 daa0 9a47 2f03 9449 811a 3a92
000000e0: ad96 7067 7781 e735 9ec6 e2cd 8e11 527f
000000f0: 2d03 18e2 f9e7 a87e 0738 e8ec bf06 d011

model_1/cls_1_sep_convbias/Conv2D i1 [4, 1, 1, 128]
-75 19 107 -21 -9 -127 123 81
32 65 68 -15 4 41 99 -100
127 19 3 15 88 -2 93 -77
-19 -1 -71 42 -105 112 -63 -67
-102 -28 -42 93 59 -61 -57 -28
-57 69 31 -109 56 110 17 51
-75 85 4 1 55 40 5 91
-67 -73 14 -48 7 105 -63 -39
-29 7 23 81 114 42 -24 -25
54 -106 60 39 -59 113 -92 126
-80 27 26 6 -91 -12 -77 -39
-99 34 113 113 62 1 71 55
-26 -109 -91 -37 -27 93 31 -93
-73 -35 -124 -52 106 -80 54 -71
15 91 127 -120 47 -27 41 38
-98 -6 -95 -31 -68 -106 19 -66
-122 38 95 33 0 88 33 21
-104 -65 111 90 -11 32 -11 -17
-60 -55 -82 -93 -38 45 -27 -119
-7 56 -127 13 57 -20 -10 -92
-66 -40 95 13 -72 -9 108 -11
120 -18 -83 -19 -8 -49 -7 100
-82 1 0 -72 13 71 4 -88
-38 -92 33 38 -92 29 -118 32
-108 -116 4 -116 -28 97 68 125
2 62 27 -30 126 -8 60 -52
52 77 55 -84 -52 67 -80 -73
-123 10 31 107 -83 -67 -71 -16
-59 21 110 -77 -29 113 -27 -82
48 -46 -51 -11 1 100 -61 116
-113 -65 -23 -63 9 119 53 -58
51 55 118 32 105 -37 102 59
00000000: b513 6beb f781 7b51 2041 44f1 0429 639c
00000010: 7f13 030f 58fe 5db3 edff b92a 9770 c1bd
00000020: 9ae4 d65d 3bc3 c7e4 c745 1f93 386e 1133
00000030: b555 0401 3728 055b bdb7 0ed0 0769 c1d9
00000040: e307 1751 722a e8e7 3696 3c27 c571 a47e
00000050: b01b 1a06 a5f4 b3d9 9d22 7171 3e01 4737
00000060: e693 a5db e55d 1fa3 b7dd 84cc 6ab0 36b9
00000070: 0f5b 7f88 2fe5 2926 9efa a1e1 bc96 13be
00000080: 8626 5f21 0058 2115 98bf 6f5a f520 f5ef
00000090: c4c9 aea3 da2d e589 f938 810d 39ec f6a4
000000a0: bed8 5f0d b8f7 6cf5 78ee aded f8cf f964
000000b0: ae01 00b8 0d47 04a8 daa4 2126 a41d 8a20
000000c0: 948c 048c e461 447d 023e 1be2 7ef8 3ccc
000000d0: 344d 37ac cc43 b0b7 850a 1f6b adbd b9f0
000000e0: c515 6eb3 e371 e5ae 30d2 cdf5 0164 c374
000000f0: 8fbf e9c1 0977 35c6 3337 7620 69db 663b

model_1/cls_1_sep_dconvbias/depthwise i1 [1, 3, 3, 128]
15 -113 11 104 -49 110 6 27
127 -108 -124 -112 86 -61 69 127
-126 62 91 107 58 84 5 -88
-34 -38 60 127 104 -37 28 -32
-103 -27 -91 19 70 -124 67 7
79 40 94 -7 -31 5 10 -9
-119 127 79 65 83 -38 -2 121
-17 41 -96 -108 22 127 -69 -1
112 84 -82 -102 -50 -74 65 19
-28 127 82 86 -65 -74 -78 -19
110 -111 6 24 127 33 -32 -32
-86 92 69 -42 -101 122 -52 -81
67 127 110 116 -66 89 71 28
127 127 -99 107 127 -99 68 39
19 -73 84 -100 -60 -113 84 50
-101 84 119 110 -48 -127 -92 -23
127 127 -119 -38 -40 -57 -95 73
14 -117 -14 97 -76 -21 -127 9
-10 89 -71 127 -30 49 32 127
71 88 25 -106 127 -121 127 127
-17 105 127 124 -72 -78 108 95
-105 -47 125 -127 -79 91 -76 -115
-29 49 67 127 57 -116 -15 52
94 123 -125 -68 28 -106 111 82
38 124 106 -127 -84 -123 -52 127
1 -45 35 -127 -127 127 111 -2
-20 -127 -43 -66 -67 -71 -79 -16
92 -121 -91 -65 -125 127 60 -94
5 109 -20 88 72 -7 44 111
-112 -88 24 92 2 -98 -81 -82
85 -41 -30 51 61 -80 -89 22
-106 -1 35 113 68 70 -69 -113
00000000: 0f8f 0b68 cf6e 061b 7f94 8490 56c3 457f
00000010: 823e 5b6b 3a54 05a8 deda 3c7f 68db 1ce0
00000020: 99e5 a513 4684 4307 4f28 5ef9 e105 0af7
00000030: 897f 4f41 53da fe79 ef29 a094 167f bbff
00000040: 7054 ae9a ceb6 4113 e47f 5256 bfb6 b2ed
00000050: 6e91 0618 7f21 e0e0 aa5c 45d6 9b7a ccaf
00000060: 437f 6e74 be59 471c 7f7f 9d6b 7f9d 4427
00000070: 13b7 549c c48f 5432 9b54 776e d081 a4e9
00000080: 7f7f 89da d8c7 a149 0e8b f261 b4eb 8109
00000090: f659 b97f e231 207f 4758 1996 7f87 7f7f
000000a0: ef69 7f7c b8b2 6c5f 97d1 7d81 b15b b48d
000000b0: e331 437f 398c f134 5e7b 83bc 1c96 6f52
000000c0: 267c 6a81 ac85 cc7f 01d3 2381 817f 6ffe
000000d0: ec81 d5be bdb9 b1f0 5c87 a5bf 837f 3ca2
000000e0: 056d ec58 48f9 2c6f 90a8 185c 029e afae
000000f0: 55d7 e233 3db0 a716 96ff 2371 4446 bb8f

model_1/cls_0_sep_convbias/Conv2D i1 [6, 1, 1, 64]
8 1 115 -47 127 -25 -23 -52
105 -35 85 88 7 -23 2 50
-50 -7 -94 94 -86 39 103 27
-6 12 21 -75 -71 110 -32 -63
-97 20 -7 -17 49 -85 -53 -57
83 71 57 -60 88 -42 -24 73
-106 -80 -44 -13 -86 35 -81 -105
118 110 -87 82 -125 63 -80 76
-106 24 55 55 -33 76 -99 -117
-87 -82 -85 89 -94 29 -7 93
-82 -115 -117 -17 60 -70 -62 70
-10 32 -106 76 42 46 8 -125
-48 114 7 -123 43 37 -69 -70
-40 -68 16 -127 -16 16 -8 -2
-98 81 13 -127 72 -2 -90 51
40 -17 -35 14 -19 54 75 -89
-100 -5 -85 -92 -51 -23 -27 -72
-46 120 -74 56 -67 10 -10 -90
-25 55 -72 -90 4 -111 -8 41
102 28 -16 -73 -116 -2 -68 -61
115 68 -41 -62 37 -115 -14 53
-86 -121 122 -69 36 20 66 -127
56 -50 -112 -15 -114 124 -32 -115
126 -105 -95 -30 51 -127 34 2
80 -64 92 -23 -73 -36 20 29
-40 -127 -52 -24 31 107 95 71
-89 -36 79 26 23 -3 -16 -5
51 42 57 -51 71 -126 26 108
-77 110 -122 2 -127 22 -16 50
-33 126 84 109 111 -52 -98 26
83 84 28 -25 -32 -92 -65 13
73 -121 -127 -60 79 -14 87 -72
00000000: 0801 73d1 7fe7 e9cc 69dd 5558 07e9 0232
00000010: cef9 a25e aa27 671b fa0c 15b5 b96e e0c1
00000020: 9f14 f9ef 31ab cbc7 5347 39c4 58d6 e849
00000030: 96b0 d4f3 aa23 af97 766e a952 833f b04c
00000040: 9618 3737 df4c 9d8b a9ae ab59 a21d f95d
00000050: ae8d 8bef 3cba c246 f620 964c 2a2e 0883
00000060: d072 0785 2b25 bbba d8bc 1081 f010 f8fe
00000070: 9e51 0d81 48fe a633 28ef dd0e ed36 4ba7
00000080: 9cfb aba4 cde9 e5b8 d278 b638 bd0a f6a6
00000090: e737 b8a6 0491 f829 661c f0b7 8cfe bcc3
000000a0: 7344 d7c2 258d f235 aa87 7abb 2414 4281
000000b0: 38ce 90f1 8e7c e08d 7e97 a1e2 3381 2202
000000c0: 50c0 5ce9 b7dc 141d d881 cce8 1f6b 5f47
000000d0: a7dc 4f1a 17fd f0fb 332a 39cd 4782 1a6c
000000e0: b36e 8602 8116 f032 df7e 546d 6fcc 9e1a
000000f0: 5354 1ce7 e0a4 bf0d 4987 81c4 4ff2 57b8

model_1/cls_0_sep_dconvbias/depthwise i1 [1, 3, 3, 64]
91 74 -110 68 -2 66 -35 -28
100 14 -34 -100 -123 127 -45 -100
121 123 -31 53 73 -67 115 6
127 127 -37 39 -97 -127 -127 -48
-12 -123 -70 -108 -39 -85 -127 0
81 120 33 45 12 124 -91 115
-86 -126 13 -21 -22 11 49 -33
-52 -99 65 -4 57 50 -15 122
-82 37 100 6 -37 -96 -91 -79
19 46 42 -101 -18 -13 -23 -9
-117 9 91 -127 4 -23 -89 -37
-66 -92 -67 -42 -26 -75 77 -15
58 -14 -67 12 104 -100 -101 126
25 -38 -46 -30 26 36 84 -57
50 -127 101 -9 -127 -36 -127 -120
95 -63 68 87 43 -127 -127 14
76 -90 -20 111 2 -127 42 -63
62 -120 127 -29 -127 -49 84 -27
32 0 -127 -53 127 60 -127 60
-8 -93 127 -77 -45 28 -47 90
-59 39 -88 125 -109 123 -14 97
127 127 -92 15 127 -9 76 93
-36 57 104 -122 23 -9 35 66
-85 116 -96 57 -30 -14 -31 127
127 21 -122 -85 127 -121 -104 -82
-48 -127 40 127 6 116 -64 -51
-110 117 40 -116 -34 -113 13 -127
-57 -51 -54 51 -28 -122 90 127
-33 -54 -75 -50 -1 127 98 -86
-1 52 -116 83 -42 59 11 56
127 -16 -118 -54 66 -106 9 -45
-112 -4 2 -87 44 78 104 113
00000000: 5b4a 9244 fe42 dde4 640e de9c 857f d39c
00000010: 797b e135 49bd 7306 7f7f db27 9f81 81d0
00000020: f485 ba94 d9ab 8100 5178 212d 0c7c a573
00000030: aa82 0deb ea0b 31df cc9d 41fc 3932 f17a
00000040: ae25 6406 dba0 a5b1 132e 2a9b eef3 e9f7
00000050: 8b09 5b81 04e9 a7db bea4 bdd6 e6b5 4df1
00000060: 3af2 bd0c 689c 9b7e 19da d2e2 1a24 54c7
00000070: 3281 65f7 81dc 8188 5fc1 4457 2b81 810e
00000080: 4ca6 ec6f 0281 2ac1 3e88 7fe3 81cf 54e5
00000090: 2000 81cb 7f3c 813c f8a3 7fb3 d31c d15a
000000a0: c527 a87d 937b f261 7f7f a40f 7ff7 4c5d
000000b0: dc39 6886 17f7 2342 ab74 a039 e2f2 e17f
000000c0: 7f15 86ab 7f87 98ae d081 287f 0674 c0cd
000000d0: 9275 288c de8f 0d81 c7cd ca33 e486 5a7f
000000e0: dfca b5ce ff7f 62aa ff34 8c53 d63b 0b38
000000f0: 7ff0 8aca 4296 09d3 90fc 02a9 2c4e 6871

model_1/basenet.12.3_conv/Conv2D i1 [256, 1, 1, 256]
-121 47 102 -46 -96 -62 -125 -45
10 -121 37 91 119 -111 62 92
43 10 118 -62 34 40 17 -43
-118 -19 83 -105 22 -7 40 -47
2 119 83 -70 113 -126 -56 28
-52 -32 65 7 -91 103 -81 119
-79 1 2 -94 -34 44 126 12
57 -25 -6 -8 -39 -56 5 -2
67 20 40 47 8 -112 9 -8
-49 60 -82 54 76 117 9 73
-90 48 29 105 31 32 115 23
52 52 30 -62 -100 -73 110 -107
-40 -122 -67 15 126 50 -120 -57
27 93 -78 -57 -116 11 64 116
-65 88 79 7 120 -100 -54 9
-61 29 -59 -20 -99 -62 -37 7
-109 -99 -43 126 -83 -86 33 28
69 -15 -98 90 31 40 123 115
-113 124 -99 111 -119 55 52 1
44 -13 -46 29 100 102 -32 92
-46 112 13 -105 -75 17 -95 -92
-29 61 -101 -78 -39 -91 33 -103
109 36 28 103 -9 25 33 122
-67 -35 -8 -37 -48 -97 -114 87
39 -17 -49 -26 -13 120 -21 81
90 -39 92 -79 -61 -66 -112 -60
58 116 27 -84 -125 86 -110 -6
-66 -97 -127 -7 -78 0 -68 -65
89 -62 -71 -106 112 -29 63 86
88 -57 -72 123 -36 61 -33 65
-96 34 114 45 62 84 124 72
5 18 -52 12 67 -9 48 120
00000000: 872f 66d2 a0c2 83d3 0a87 255b 7791 3e5c
00000010: 2b0a 76c2 2228 11d5 8aed 5397 16f9 28d1
00000020: 0277 53ba 7182 c81c cce0 4107 a567 af77
00000030: b101 02a2 de2c 7e0c 39e7 faf8 d9c8 05fe
00000040: 4314 282f 0890 09f8 cf3c ae36 4c75 0949
00000050: a630 1d69 1f20 7317 3434 1ec2 9cb7 6e95
00000060: d886 bd0f 7e32 88c7 1b5d b2c7 8c0b 4074
00000070: bf58 4f07 789c ca09 c31d c5ec 9dc2 db07
00000080: 939d d57e adaa 211c 45f1 9e5a 1f28 7b73
00000090: 8f7c 9d6f 8937 3401 2cf3 d21d 6466 e05c
000000a0: d270 0d97 b511 a1a4 e33d 9bb2 d9a5 2199
000000b0: 6d24 1c67 f719 217a bddd f8db d09f 8e57
000000c0: 27ef cfe6 f378 eb51 5ad9 5cb1 c3be 90c4
000000d0: 3a74 1bac 8356 92fa be9f 81f9 b200 bcbf
000000e0: 59c2 b996 70e3 3f56 58c7 b87b dc3d df41
000000f0: a022 722d 3e54 7c48 0512 cc0c 43f7 3078

model_1/basenet.12.1_bn/FusedBatchNormV3;model_1/basenet.12.0_dconv/depthwise;model_1/basenet.11.4_bn/FusedBatchNormV3/ReadVariableOp;model_1/basenet.12.4_bn/FusedBatchNormV3 i1 [1, 3, 3, 256]
-81 62 -72 -3 -45 -93 -26 -3
64 70 21 70 -127 -125 76 30
-15 125 -110 -58 -97 -20 55 -112
-56 8 64 -21 -29 29 127 -59
-44 -109 -49 -71 36 25 24 66
55 2 -11 62 96 -56 36 -5
70 -70 -20 -112 115 -101 22 127
-62 -86 118 61 -77 -93 -116 -14
31 127 118 97 46 -127 -28 64
124 -16 -16 41 40 120 -12 -69
-127 125 7 82 20 -127 9 61
-43 -115 -59 -3 110 -94 -39 65
77 -11 101 -121 -35 109 51 82
-97 -123 -15 -77 -63 -127 -127 -125
2 -116 17 126 -75 70 -127 14
92 -2 -17 31 103 1 -50 -53
-53 -127 111 35 -73 -109 71 -69
-11 -60 7 -22 -107 75 -33 70
-96 -127 112 -127 127 -110 82 -110
-22 106 -9 -3 116 92 -89 -16
-121 93 -127 99 -84 -70 23 -79
95 57 127 127 -125 -24 103 -108
49 -118 -106 -20 54 96 -127 -79
42 79 4 89 17 -91 2 45
-121 -121 -66 111 -127 52 -62 -113
-127 -112 82 -7 73 -5 -1 -127
100 38 78 -87 -18 14 10 125
90 39 127 27 127 -36 -56 -127
69 107 1 -51 -55 -73 118 -76
-83 -115 127 122 22 49 11 -75
-79 127 66 21 41 0 -98 -52
-110 -17 -37 -5 -62 105 72 76
00000000: af3e b8fd d3a3 e6fd 4046 1546 8183 4c1e
00000010: f17d 92c6 9fec 3790 c808 40eb e31d 7fc5
00000020: d493 cfb9 2419 1842 3702 f53e 60c8 24fb
00000030: 46ba ec90 739b 167f c2aa 763d b3a3 8cf2
00000040: 1f7f 7661 2e81 e440 7cf0 f029 2878 f4bb
00000050: 817d 0752 1481 093d d58d c5fd 6ea2 d941
00000060: 4df5 6587 dd6d 3352 9f85 f1b3 c181 8183
00000070: 028c 117e b546 810e 5cfe ef1f 6701 cecb
00000080: cb81 6f23 b793 47bb f5c4 07ea 954b df46
00000090: a081 7081 7f92 5292 ea6a f7fd 745c a7f0
000000a0: 875d 8163 acba 17b1 5f39 7f7f 83e8 6794
000000b0: 318a 96ec 3660 81b1 2a4f 0459 11a5 022d
000000c0: 8787 be6f 8134 c28f 8190 52f9 49fb ff81
000000d0: 6426 4ea9 ee0e 0a7d 5a27 7f1b 7fdc c881
000000e0: 456b 01cd c9b7 76b4 ad8d 7f7a 1631 0bb5
000000f0: b17f 4215 2900 9ecc 92ef dbfb c269 484c

model_1/basenet.11.3_conv/Conv2D i1 [256, 1, 1, 128]
113 -115 98 -5 119 -39 88 66
68 -59 -65 81 87 -62 98 -94
-123 76 -38 18 -2 -78 -90 -50
-111 104 -84 18 -105 -106 31 -94
-26 58 20 108 49 26 50 -115
117 -102 13 -83 94 -105 -107 -102
-36 21 0 5 52 -34 64 -104
29 60 -92 127 -117 11 9 -46
-65 -63 88 -73 73 41 78 34
-91 -38 -122 -127 112 35 89 -111
69 -48 -104 95 35 125 52 122
-84 -31 53 -43 122 127 -85 85
-68 -20 77 22 126 99 -53 -24
-56 -36 -82 -77 124 23 66 -56
-84 -60 91 64 -56 -6 -99 -21
-28 64 -66 30 38 57 -87 -25
26 31 -20 84 28 -97 96 -80
-112 -81 -94 -13 25 87 29 82
55 -90 119 37 89 -123 -8 24
71 -124 95 121 -110 45 65 115
-60 35 6 -119 -47 5 -97 -57
-86 98 -49 9 -74 -99 53 -87
56 119 -62 -55 -94 51 -126 -123
-4 -82 -14 53 85 -113 24 -28
-90 13 -72 -70 44 -111 67 76
125 -19 -91 -42 22 124 -59 -10
-127 -27 -111 -89 82 -88 78 -78
49 27 -97 18 85 108 -102 65
-80 28 -75 76 0 -92 -60 85
-65 13 -30 -57 13 -30 102 23
-51 -17 96 -98 25 -121 -69 86
-115 -97 -91 -64 -118 112 72 -97
00000000: 718d 62fb 77d9 5842 44c5 bf51 57c2 62a2
00000010: 854c da12 feb2 a6ce 9168 ac12 9796 1fa2
00000020: e63a 146c 311a 328d 759a 0dad 5e97 959a
00000030: dc15 0005 34de 4098 1d3c a47f 8b0b 09d2
00000040: bfc1 58b7 4929 4e22 a5da 8681 7023 5991
00000050: 45d0 985f 237d 347a ace1 35d5 7a7f ab55
00000060: bcec 4d16 7e63 cbe8 c8dc aeb3 7c17 42c8
00000070: acc4 5b40 c8fa 9deb e440 be1e 2639 a9e7
00000080: 1a1f ec54 1c9f 60b0 90af a2f3 1957 1d52
00000090: 37a6 7725 5985 f818 4784 5f79 922d 4173
000000a0: c423 0689 d105 9fc7 aa62 cf09 b69d 35a9
000000b0: 3877 c2c9 a233 8285 fcae f235 558f 18e4
000000c0: a60d b8ba 2c91 434c 7ded a5d6 167c c5f6
000000d0: 81e5 91a7 52a8 4eb2 311b 9f12 556c 9a41
000000e0: b01c b54c 00a4 c455 bf0d e2c7 0de2 6617
000000f0: cdef 609e 1987 bb56 8d9f a5c0 8a70 489f

model_1/basenet.11.1_bn/FusedBatchNormV3;model_1/basenet.11.0_dconv/depthwise;model_1/basenet.10.1_bn/FusedBatchNormV3/ReadVariableOp i1 [1, 3, 3, 128]
-110 4 -2 90 21 -15 -39 -116
127 -63 -17 -15 -120 92 59 46
127 41 24 1 38 33 -98 -66
-33 36 103 -127 -127 -47 -41 -16
-127 42 -63 127 23 -42 8 86
-127 63 67 -57 1 3 -69 -95
122 -127 -7 -78 -41 54 62 63
127 92 127 -57 -66 50 -16 17
109 -112 -64 -60 -127 -43 -78 -39
87 -16 -38 39 -91 30 88 -102
17 85 -43 -4 3 -22 32 -116
-17 1 127 -19 -87 62 13 79
-48 -46 -127 -27 20 59 -41 84
-5 9 -87 66 -72 15 -118 -17
-67 -127 -110 104 -98 111 120 61
-16 52 102 80 127 58 -50 -120
97 -105 87 86 44 -27 127 -84
13 -106 127 -42 -87 127 -117 -78
60 77 86 55 -127 127 127 20
-44 67 -52 44 -11 -120 71 -12
82 -66 -127 -80 91 -62 74 82
85 -65 55 -105 -47 127 -25 48
-127 -9 -121 53 106 122 76 0
-80 28 115 15 -60 122 -58 58
-127 -94 -37 51 113 -11 45 -85
-104 7 89 93 127 2 -90 65
-116 -34 77 -63 92 -127 -77 106
-24 92 -5 68 -61 6 -88 -127
-125 -69 102 127 73 65 -126 -63
21 29 -125 16 38 -56 -75 19
-22 -112 29 -34 28 -123 -2 -88
127 81 -9 122 -73 -57 74 106
00000000: 9204 fe5a 15f1 d98c 7fc1 eff1 885c 3b2e
00000010: 7f29 1801 2621 9ebe df24 6781 81d1 d7f0
00000020: 812a c17f 17d6 0856 813f 43c7 0103 bba1
00000030: 7a81 f9b2 d736 3e3f 7f5c 7fc7 be32 f011
00000040: 6d90 c0c4 81d5 b2d9 57f0 da27 a51e 589a
00000050: 1155 d5fc 03ea 208c ef01 7fed a93e 0d4f
00000060: d0d2 81e5 143b d754 fb09 a942 b80f 8aef
00000070: bd81 9268 9e6f 783d f034 6650 7f3a ce88
00000080: 6197 5756 2ce5 7fac 0d96 7fd6 a97f 8bb2
00000090: 3c4d 5637 817f 7f14 d443 cc2c f588 47f4
000000a0: 52be 81b0 5bc2 4a52 55bf 3797 d17f e730
000000b0: 81f7 8735 6a7a 4c00 b01c 730f c47a c63a
000000c0: 81a2 db33 71f5 2dab 9807 595d 7f02 a641
000000d0: 8cde 4dc1 5c81 b36a e85c fb44 c306 a881
000000e0: 83bb 667f 4941 82c1 151d 8310 26c8 b513
000000f0: ea90 1dde 1c85 fea8 7f51 f77a b7c7 4a6a

model_1/basenet.10.3_conv/Conv2D i1 [128, 1, 1, 128]
56 32 -16 65 -117 83 -74 88
85 93 -115 -65 -92 93 -75 58
-109 -3 15 -96 72 -35 -19 27
-116 -6 43 -14 3 72 121 30
124 -73 90 -108 30 -92 -24 -53
38 -93 -74 -79 -89 58 55 -80
127 -102 38 -15 -54 43 -62 -88
-63 21 15 -51 -120 6 -71 -46
8 87 -72 35 -93 -53 -82 78
-13 76 -124 17 -33 -126 86 -117
119 82 -98 -115 83 44 53 50
17 -70 6 22 -29 -61 -40 -105
13 67 -102 54 -2 61 -76 55
-109 -58 19 63 63 -34 12 -71
-87 -98 85 -81 -96 -48 -13 1
-106 85 70 -84 59 23 -11 107
84 -116 94 -79 -85 -108 126 17
80 51 -21 83 51 118 -94 96
-91 -4 74 -111 -103 -40 29 -61
-89 46 120 -56 8 93 68 -25
-81 51 29 12 -19 112 -99 -49
82 -110 37 -57 105 20 50 -3
94 29 -53 46 -43 -42 -72 106
-110 37 126 50 -88 14 52 -114
112 96 -60 -78 28 -43 74 24
-41 30 22 -54 -27 7 -60 127
-6 -100 100 124 66 -101 -62 88
82 -81 100 57 -44 34 77 -92
-16 103 -122 -35 63 -63 -3 49
-18 79 10 -18 58 114 82 -12
-50 -4 -26 119 -38 -47 -65 95
-53 97 -121 -115 6 25 1 99
00000000: 3820 f041 8b53 b658 555d 8dbf a45d b53a
00000010: 93fd 0fa0 48dd ed1b 8cfa 2bf2 0348 791e
00000020: 7cb7 5a94 1ea4 e8cb 26a3 b6b1 a73a 37b0
00000030: 7f9a 26f1 ca2b c2a8 c115 0fcd 8806 b9d2
00000040: 0857 b823 a3cb ae4e f34c 8411 df82 568b
00000050: 7752 9e8d 532c 3532 11ba 0616 e3c3 d897
00000060: 0d43 9a36 fe3d b437 93c6 133f 3fde 0cb9
00000070: a99e 55af a0d0 f301 9655 46ac 3b17 f56b
00000080: 548c 5eb1 ab94 7e11 5033 eb53 3376 a260
00000090: a5fc 4a91 99d8 1dc3 a72e 78c8 085d 44e7
000000a0: af33 1d0c ed70 9dcf 5292 25c7 6914 32fd
000000b0: 5e1d cb2e d5d6 b86a 9225 7e32 a80e 348e
000000c0: 7060 c4b2 1cd5 4a18 d71e 16ca e507 c47f
000000d0: fa9c 647c 429b c258 52af 6439 d422 4da4
000000e0: f067 86dd 3fc1 fd31 ee4f 0aee 3a72 52f4
000000f0: cefc e677 dad1 bf5f cb61 878d 0619 0163

model_1/basenet.10.1_bn/FusedBatchNormV3;model_1/basenet.10.0_dconv/depthwise;model_1/basenet.10.1_bn/FusedBatchNormV3/ReadVariableOp;model_1/basenet.11.1_bn/FusedBatchNormV3 i1 [1, 3, 3, 128]
-6 -70 80 -3 49 -51 -114 -12
-115 46 121 -60 -47 -2 -9 -102
117 41 -124 99 -58 7 -65 88
-80 -60 56 -122 47 -77 20 127
-89 -127 -40 -68 112 -104 106 106
-16 7 -36 -33 20 127 -45 127
-61 54 127 127 -14 -1 126 -125
-29 9 100 32 106 -106 37 -127
-6 96 -111 4 72 -14 -111 25
48 -19 -68 95 -88 127 97 50
-13 127 106 -19 42 -16 70 53
127 -127 15 66 -127 -47 -122 -27
127 -51 -50 -127 -14 -24 0 12
50 4 92 51 -108 -98 37 33
79 -83 13 -7 -66 8 101 -49
-1 51 35 26 127 -119 -107 106
-1 -27 -95 -23 95 -17 -64 69
-42 -31 -81 23 87 111 -124 -17
-9 -40 53 62 -1 119 111 -84
-117 -25 101 30 -65 -85 55 52
99 -56 127 -125 127 77 101 125
-65 101 -86 -20 -76 -37 -29 -104
-67 58 14 77 -16 -127 112 -15
12 84 90 100 91 99 -103 92
-24 -127 -67 -119 -127 35 73 19
-103 -60 -124 30 -97 -46 38 89
25 -92 -29 57 93 -118 29 13
-71 -3 61 -84 45 94 -19 17
-31 -57 20 -37 -86 -120 -127 52
79 -54 121 61 -83 127 -127 18
-28 109 -127 26 -4 83 -23 -12
41 64 -100 16 -22 -67 117 -18
00000000: faba 50fd 31cd 8ef4 8d2e 79c4 d1fe f79a
00000010: 7529 8463 c607 bf58 b0c4 3886 2fb3 147f
00000020: a781 d8bc 7098 6a6a f007 dcdf 147f d37f
00000030: c336 7f7f f2ff 7e83 e309 6420 6a96 2581
00000040: fa60 9104 48f2 9119 30ed bc5f a87f 6132
00000050: f37f 6aed 2af0 4635 7f81 0f42 81d1 86e5
00000060: 7fcd ce81 f2e8 000c 3204 5c33 949e 2521
00000070: 4fad 0df9 be08 65cf ff33 231a 7f89 956a
00000080: ffe5 a1e9 5fef c045 d6e1 af17 576f 84ef
00000090: f7d8 353e ff77 6fac 8be7 651e bfab 3734
000000a0: 63c8 7f83 7f4d 657d bf65 aaec b4db e398
000000b0: bd3a 0e4d f081 70f1 0c54 5a64 5b63 995c
000000c0: e881 bd89 8123 4913 99c4 841e 9fd2 2659
000000d0: 19a4 e339 5d8a 1d0d b9fd 3dac 2d5e ed11
000000e0: e1c7 14db aa88 8134 4fca 793d ad7f 8112
000000f0: e46d 811a fc53 e9f4 2940 9c10 eabd 75ee

model_1/basenet.9.3_conv/Conv2D i1 [128, 1, 1, 128]
-38 82 38 24 123 -25 -27 -89
-120 95 -48 105 30 77 2 75
73 -63 -57 86 10 94 -44 82
-117 68 123 -18 12 -108 -100 -108
-70 -33 40 -56 92 66 64 19
47 -9 -65 -35 50 107 -76 -89
-31 114 112 -28 56 92 28 108
-43 16 -53 -4 126 82 2 28
21 -33 -90 -94 -54 -94 -50 37
9 69 -88 -15 8 -51 29 113
103 -107 32 24 7 85 127 -44
43 -117 100 -85 69 46 -64 -6
20 -69 82 -77 24 13 25 121
98 56 -20 86 -1 52 116 23
-117 88 -46 -8 -104 -116 -119 34
3 -87 -72 -54 -21 -55 115 31
-12 -58 -98 44 27 -47 83 -27
-85 -107 92 -11 107 -33 -36 -2
-5 -111 -72 13 90 -108 -38 -107
109 103 -118 -41 29 124 6 41
-41 -66 -49 60 -100 -61 28 63
89 -15 -54 32 104 39 -11 65
-64 84 60 99 -65 55 -38 -95
-70 18 -126 87 -44 -121 1 -107
-33 125 94 124 -10 -47 2 -117
86 91 -96 -50 87 -75 34 -11
-103 -105 -18 103 65 -20 -107 -75
100 -78 -86 -63 45 -91 61 49
-58 2 113 105 65 -107 -109 53
17 -37 42 92 -112 -36 125 -25
-65 35 69 87 -27 -54 30 -80
127 -78 83 100 -108 -66 -95 -70
00000000: da52 2618 7be7 e5a7 885f d069 1e4d 024b
00000010: 49c1 c756 0a5e d452 8b44 7bee 0c94 9c94
00000020: badf 28c8 5c42 4013 2ff7 bfdd 326b b4a7
00000030: e172 70e4 385c 1c6c d510 cbfc 7e52 021c
00000040: 15df a6a2 caa2 ce25 0945 a8f1 08cd 1d71
00000050: 6795 2018 0755 7fd4 2b8b 64ab 452e c0fa
00000060: 14bb 52b3 180d 1979 6238 ec56 ff34 7417
00000070: 8b58 d2f8 988c 8922 03a9 b8ca ebc9 731f
00000080: f4c6 9e2c 1bd1 53e5 ab95 5cf5 6bdf dcfe
00000090: fb91 b80d 5a94 da95 6d67 8ad7 1d7c 0629
000000a0: d7be cf3c 9cc3 1c3f 59f1 ca20 6827 f541
000000b0: c054 3c63 bf37 daa1 ba12 8257 d487 0195
000000c0: df7d 5e7c f6d1 028b 565b a0ce 57b5 22f5
000000d0: 9997 ee67 41ec 95b5 64b2 aac1 2da5 3d31
000000e0: c602 7169 4195 9335 11db 2a5c 90dc 7de7
000000f0: bf23 4557 e5ca 1eb0 7fb2 5364 94be a1ba

model_1/basenet.9.1_bn/FusedBatchNormV3;model_1/basenet.9.0_dconv/depthwise;model_1/basenet.10.1_bn/FusedBatchNormV3/ReadVariableOp;model_1/basenet.11.1_bn/FusedBatchNormV3 i1 [1, 3, 3, 128]
-50 116 -84 -82 68 -16 127 -127
107 9 -44 6 4 -127 38 -78
98 -116 -85 45 30 -127 -90 93
-124 25 33 -36 28 98 -78 -127
-70 120 -127 -102 37 39 -20 101
-66 73 98 113 -82 -59 39 -84
-70 -88 -66 11 -127 -40 -12 51
-127 -120 -127 96 100 25 127 -111
1 35 18 79 -13 -40 5 -127
-125 55 63 38 127 -115 78 91
38 -127 82 -127 -77 87 -92 -127
-74 -48 -67 -36 -25 112 27 -109
17 51 -9 -37 97 25 2 -74
-21 58 -127 -75 -88 -127 -48 -14
71 68 102 -46 5 -84 -118 29
13 -41 33 -60 120 88 -21 127
-18 -39 127 -34 98 29 -8 118
-76 -97 -38 -122 66 106 63 54
-47 76 -34 -30 115 62 45 85
25 69 115 -97 63 -123 -111 -80
82 22 18 -25 -19 -108 102 95
-127 -105 -73 -10 -15 5 -118 90
-117 88 91 123 -14 -127 -127 -72
-24 94 -92 73 -22 78 13 -21
-24 42 98 7 -83 -62 68 82
-64 37 -70 -90 64 78 -127 69
63 14 127 77 70 127 -28 112
8 -58 -79 86 34 21 -85 68
22 127 -127 40 -47 -125 -71 0
20 64 -127 112 49 -7 -63 -70
1 -94 118 3 14 35 -37 28
87 8 -73 106 127 -9 125 73
00000000: ce74 acae 44f0 7f81 6b09 d406 0481 26b2
00000010: 628c ab2d 1e81 a65d 8419 21dc 1c62 b281
00000020: ba78 819a 2527 ec65 be49 6271 aec5 27ac
00000030: baa8 be0b 81d8 f433 8188 8160 6419 7f91
00000040: 0123 124f f3d8 0581 8337 3f26 7f8d 4e5b
00000050: 2681 5281 b357 a481 b6d0 bddc e770 1b93
00000060: 1133 f7db 6119 02b6 eb3a 81b5 a881 d0f2
00000070: 4744 66d2 05ac 8a1d 0dd7 21c4 7858 eb7f
00000080: eed9 7fde 621d f876 b49f da86 426a 3f36
00000090: d14c dee2 733e 2d55 1945 739f 3f85 91b0
000000a0: 5216 12e7 ed94 665f 8197 b7f6 f105 8a5a
000000b0: 8b58 5b7b f281 81b8 e85e a449 ea4e 0deb
000000c0: e82a 6207 adc2 4452 c025 baa6 404e 8145
000000d0: 3f0e 7f4d 467f e470 08c6 b156 2215 ab44
000000e0: 167f 8128 d183 b900 1440 8170 31f9 c1ba
000000f0: 01a2 7603 0e23 db1c 5708 b76a 7ff7 7d49

model_1/basenet.8.3_conv/Conv2D i1 [128, 1, 1, 64]
-20 5 -48 45 -123 -7 -3 -47
-1 -32 -81 100 -83 26 -120 -123
13 -42 74 -2 68 28 -101 41
-123 -1 28 -46 -110 -36 124 53
-126 -20 81 -44 -44 -23 -99 -3
-14 23 -95 -42 17 54 18 71
62 -75 113 -64 18 -102 -68 88
-121 -9 127 -57 -101 -116 92 21
62 -100 63 19 86 -82 -80 -86
89 117 83 113 115 -52 -32 66
-34 -19 -53 -83 -66 122 -30 -92
38 -28 -43 104 -28 92 -69 91
95 -2 -113 64 16 -58 -106 66
-10 8 -98 123 11 -36 110 -120
-121 -21 -126 -46 -84 6 115 2
-90 7 -77 31 127 108 -118 -120
-35 70 -10 81 -115 -124 -96 -16
111 -101 -35 126 83 -70 19 -8
-127 -20 18 53 -68 120 94 42
-49 -104 42 -71 104 -10 76 -9
-21 100 65 121 -69 117 -14 27
14 56 73 75 67 -103 -106 110
50 -11 -20 -10 22 -97 73 -109
13 -33 -27 47 11 42 4 -62
-39 121 -69 31 98 -72 -85 116
-16 52 -51 -32 40 -36 99 100
-96 -112 127 -79 41 66 -34 -61
-117 -79 -31 41 40 103 62 -62
78 -29 80 -8 -44 -3 54 0
3 -79 119 -92 -55 -89 47 63
20 -56 -69 104 8 -54 -85 54
-48 -6 10 91 -60 116 3 27
00000000: ec05 d02d 85f9 fdd1 ffe0 af64 ad1a 8885
00000010: 0dd6 4afe 441c 9b29 85ff 1cd2 92dc 7c35
00000020: 82ec 51d4 d4e9 9dfd f217 a1d6 1136 1247
00000030: 3eb5 71c0 129a bc58 87f7 7fc7 9b8c 5c15
00000040: 3e9c 3f13 56ae b0aa 5975 5371 73cc e042
00000050: deed cbad be7a e2a4 26e4 d568 e45c bb5b
00000060: 5ffe 8f40 10c6 9642 f608 9e7b 0bdc 6e88
00000070: 87eb 82d2 ac06 7302 a607 b31f 7f6c 8a88
00000080: dd46 f651 8d84 a0f0 6f9b dd7e 53ba 13f8
00000090: 81ec 1235 bc78 5e2a cf98 2ab9 68f6 4cf7
000000a0: eb64 4179 bb75 f21b 0e38 494b 4399 966e
000000b0: 32f5 ecf6 169f 4993 0ddf e52f 0b2a 04c2
000000c0: d979 bb1f 62b8 ab74 f034 cde0 28dc 6364
000000d0: a090 7fb1 2942 dec3 8bb1 e129 2867 3ec2
000000e0: 4ee3 50f8 d4fd 3600 03b1 77a4 c9a7 2f3f
000000f0: 14c8 bb68 08ca ab36 d0fa 0a5b c474 031b

model_1/basenet.8.1_bn/FusedBatchNormV3;model_1/basenet.8.0_dconv/depthwise;model_1/basenet.4.4_bn/FusedBatchNormV3/ReadVariableOp i1 [1, 3, 3, 64]
127 127 44 23 -94 15 -14 116
118 -85 14 -59 -29 -64 61 -46
-78 -42 -91 89 96 0 -102 115
18 93 59 98 -42 44 -117 110
54 -127 -38 -14 -127 91 -108 51
13 112 126 26 -127 127 -32 22
112 -108 -47 73 127 127 -111 -33
122 -121 116 -127 44 55 -103 2
81 92 39 -115 103 14 -101 122
58 -66 -121 55 -18 30 -116 127
10 127 -90 49 127 -43 -70 -127
127 69 -28 -66 69 -35 126 -44
22 38 51 39 22 71 -32 45
-120 84 -65 -41 -33 -70 -32 85
-114 123 -58 107 41 -125 -86 -38
93 -65 -87 73 127 -127 100 69
-16 -15 13 -115 -8 -20 47 -28
-114 -113 43 -31 35 127 -127 113
-39 75 41 108 20 -108 88 -112
95 126 -108 45 -127 -107 104 -123
122 58 -19 -11 82 -107 -31 -41
45 15 64 127 -45 124 89 22
-127 10 120 109 96 106 6 61
15 -73 -39 -86 -18 -20 -45 -73
38 49 -110 127 63 61 108 -90
64 -11 -87 -82 85 50 65 -14
127 19 104 89 58 -122 45 9
2 -57 -44 -90 -3 -107 79 -50
127 98 -106 127 92 -82 127 -68
-64 125 102 -6 -48 -106 -115 0
-45 -92 -17 40 23 -95 12 -55
-42 20 -32 69 106 -56 -88 -51
00000000: 7f7f 2c17 a20f f274 76ab 0ec5 e3c0 3dd2
00000010: b2d6 a559 6000 9a73 125d 3b62 d62c 8b6e
00000020: 3681 daf2 815b 9433 0d70 7e1a 817f e016
00000030: 7094 d149 7f7f 91df 7a87 7481 2c37 9902
00000040: 515c 278d 670e 9b7a 3abe 8737 ee1e 8c7f
00000050: 0a7f a631 7fd5 ba81 7f45 e4be 45dd 7ed4
00000060: 1626 3327 1647 e02d 8854 bfd7 dfba e055
00000070: 8e7b c66b 2983 aada 5dbf a949 7f81 6445
00000080: f0f1 0d8d f8ec 2fe4 8e8f 2be1 237f 8171
00000090: d94b 296c 1494 5890 5f7e 942d 8195 6885
000000a0: 7a3a edf5 5295 e1d7 2d0f 407f d37c 5916
000000b0: 810a 786d 606a 063d 0fb7 d9aa eeec d3b7
000000c0: 2631 927f 3f3d 6ca6 40f5 a9ae 5532 41f2
000000d0: 7f13 6859 3a86 2d09 02c7 d4a6 fd95 4fce
000000e0: 7f62 967f 5cae 7fbc c07d 66fa d096 8d00
000000f0: d3a4 ef28 17a1 0cc9 d614 e045 6ac8 a8cd

model_1/basenet.7.3_conv/Conv2D i1 [64, 1, 1, 64]
-57 81 43 54 64 116 73 39
-111 127 -21 -16 90 -108 -112 -61
103 66 -79 11 86 -111 50 18
3 119 52 -57 -42 17 -9 66
-94 -77 1 50 -86 80 10 55
-79 -23 4 1 57 -9 50 106
107 60 -58 113 -84 -84 -123 126
99 -35 -71 16 -26 39 68 54
-92 -91 -21 -53 12 48 -110 98
-19 21 10 3 127 44 -69 -83
-77 113 -83 124 -78 -27 53 -6
36 124 93 -19 -120 -38 -116 -8
63 -107 -42 -88 -103 76 18 -5
-70 -34 -29 -64 27 -62 -83 -41
-101 -46 -89 53 27 -30 -90 112
-65 -127 -24 -123 -40 25 126 72
47 -49 -47 -27 -15 53 -43 28
109 -122 25 124 -104 -54 -118 -127
-90 53 15 95 -112 -101 -55 -13
17 10 124 -105 108 116 90 77
60 16 -31 -102 -36 37 37 -77
22 -42 -81 28 -59 6 102 -56
-117 11 -66 46 101 -9 22 -77
10 -105 -107 37 -83 28 82 -21
90 78 18 103 124 118 -6 -127
93 123 34 -44 -74 91 -49 -116
36 78 88 -31 98 85 76 -74
-19 51 105 57 -124 77 87 -84
123 88 119 -82 -4 -119 69 100
78 -77 41 28 116 31 -29 -8
-84 40 -87 -85 -18 -79 15 -57
-11 67 47 -99 -108 -22 78 -93
00000000: c751 2b36 4074 4927 917f ebf0 5a94 90c3
00000010: 6742 b10b 5691 3212 0377 34c7 d611 f742
00000020: a2b3 0132 aa50 0a37 b1e9 0401 39f7 326a
00000030: 6b3c c671 acac 857e 63dd b910 e627 4436
00000040: a4a5 ebcb 0c30 9262 ed15 0a03 7f2c bbad
00000050: b371 ad7c b2e5 35fa 247c 5ded 88da 8cf8
00000060: 3f95 d6a8 994c 12fb bade e3c0 1bc2 add7
00000070: 9bd2 a735 1be2 a670 bf81 e885 d819 7e48
00000080: 2fcf d1e5 f135 d51c 6d86 197c 98ca 8a81
00000090: a635 0f5f 909b c9f3 110a 7c97 6c74 5a4d
000000a0: 3c10 e19a dc25 25b3 16d6 af1c c506 66c8
000000b0: 8b0b be2e 65f7 16b3 0a97 9525 ad1c 52eb
000000c0: 5a4e 1267 7c76 fa81 5d7b 22d4 b65b cf8c
000000d0: 244e 58e1 6255 4cb6 ed33 6939 844d 57ac
000000e0: 7b58 77ae fc89 4564 4eb3 291c 741f e3f8
000000f0: ac28 a9ab eeb1 0fc7 f543 2f9d 94ea 4ea3
